4. Multi-Agent Reinforcement Learning/p3_collab-compet/checkpoint_critic.pth (torch_old, 52351 bytes, 17 tensors)

bn0.weight f4 [24]
000000 07 9a 65 3e af ea 66 3e f1 20 bb 3d d1 fa 17 3e
       0.22422038 0.22550462 0.091371424 0.14841773
000010 e3 65 87 3f c1 1e 24 3f 2c be 0a 3d f3 d6 ea bb
       1.0577968 0.64109427 0.03387277 -0.007166737
000020 9a 7c f4 3d b0 0f 12 3d 7f f9 a2 3d 38 fd d7 3d
       0.11937828 0.035659492 0.07957744 0.105463445
000030 98 b8 32 3f b3 90 20 3f 8c ef ad 3d 76 7d 2b 3e
       0.6981292 0.62720793 0.084929556 0.16747078
000040 5a 1b 16 3f 64 09 85 3e 12 cc 89 3b 19 5d a2 3e
       0.58635485 0.25983727 0.0042052353 0.31711653
000050 5f 11 47 3f 71 dc 3c 3f 0d 9a 44 3e 06 75 73 3e
       0.7776088 0.73773867 0.1919939 0.2377511

bn0.bias f4 [24]
000000 8a 2b b9 b7 6a 8e 74 39 a4 67 de b7 71 97 dc b7
       -2.2073993e-05 0.00023322707 -2.6512724e-05 -2.6296564e-05
000010 c5 2e 4b ba 5e 6f 56 39 d8 3e e4 b8 84 f7 6f b8
       -0.00077508047 0.00020450118 -0.00010883593 -5.7212557e-05
000020 0a e5 fa 38 ee e2 ce 38 44 20 80 b8 10 c5 44 38
       0.00011963591 9.8651144e-05 -6.1095256e-05 4.691357e-05
000030 de 21 83 b9 67 3d 6c 38 75 01 b2 36 6d 4a 99 38
       -0.000250115 5.632397e-05 5.304983e-06 7.3094714e-05
000040 54 94 58 b8 70 77 fb 38 d9 25 5a b8 4a 76 4e 37
       -5.1636554e-05 0.0001199086 -5.20105e-05 1.2306098e-05
000050 10 73 3f b9 c0 25 af b9 f4 24 a5 38 94 60 d6 38
       -0.00018258044 -0.00033406727 7.874696e-05 0.00010222304

bn0.running_mean f4 [24]
000000 f6 e0 c1 c0 5e 54 d7 be 5a 5e 81 40 77 22 11 3e
       -6.058711 -0.42056555 4.0427675 0.14173304
000010 f2 6d 7f bc 9c f7 58 40 5a 5e 81 40 77 22 11 3e
       -0.015590178 3.3901129 4.0427675 0.14173304
000020 12 1a c5 c0 18 df dc be 78 1d 90 40 e2 76 b2 3d
       -6.1594324 -0.43138957 4.5035973 0.08714081
000030 de 45 84 bc 36 69 58 40 78 1d 90 40 e2 76 b2 3d
       -0.016146597 3.3814216 4.5035973 0.08714081
000040 38 70 c9 c0 a0 3c e7 be c8 cb 92 40 2f 34 6e 3d
       -6.2949486 -0.4516344 4.5873756 0.058155235
000050 df 1c b7 3b d5 6a 58 40 c8 cb 92 40 2f 34 6e 3d
       0.0055881585 3.3815205 4.5873756 0.058155235

bn0.running_var f4 [24]
000000 46 cd 74 41 46 cd 7d 3f 81 98 96 43 e8 17 51 41
       15.300116 0.9914135 301.19144 13.0683365
000010 ba 75 07 42 5a f1 6b 40 81 98 96 43 e8 17 51 41
       33.864967 3.686606 301.19144 13.0683365
000020 76 8f 6a 41 04 85 80 3f fc 52 9b 43 e4 d3 5b 41
       14.660025 1.0040593 310.64832 13.739231
000030 2d 50 0f 42 d6 06 71 40 fc 52 9b 43 e4 d3 5b 41
       35.828297 3.7660422 310.64832 13.739231
000040 ab c6 5f 41 1b 05 83 3f 2f c1 9f 43 0b 02 63 41
       13.986003 1.0235933 319.50925 14.187999
000050 c3 0e 19 42 24 ec 7f 40 2f c1 9f 43 0b 02 63 41
       38.264416 3.9987879 319.50925 14.187999

fc1.weight f4 [128, 24]
000000 66 e8 28 3e 6c 56 21 be b5 12 05 bc 56 9b 51 3c
       0.16494903 -0.15755624 -0.008122136 0.012793383
000010 10 ef 4e bd e0 02 8d bd 37 bc cd 3d be a1 71 3c
       -0.050520957 -0.06885314 0.10045665 0.014748035
000020 78 1b 00 3d 0f 22 3b be e9 11 36 bd ac e7 8a bc
       0.031276196 -0.18274711 -0.044450674 -0.016956173
000030 74 dd 20 3e d9 ff b9 3c 57 21 a9 bc d5 73 12 be
       0.15709478 0.022705005 -0.02064578 -0.14301999
000040 f6 38 f9 3d ea 78 0a 3c 6e 26 a8 3d 94 39 f1 bc
       0.121690676 0.00845168 0.08210455 -0.0294464
000050 28 f2 ca 3e 5a 9d ec 3e bd b7 41 3d d4 24 c2 3d
       0.39637876 0.462138 0.047294367 0.09479681
000060 7d d4 c1 3b cc 54 61 3e 3c f3 38 3d 17 71 a2 3d
       0.005915223 0.22005004 0.04515384 0.079317264
000070 a2 f1 95 3d 6a c7 86 3d e4 17 93 3c 6a fa 97 bd
       0.073214784 0.06581004 0.017955728 -0.074208096
000080 ae 29 d9 bd 4c 7f 18 3e 8f 28 41 bd 03 8d d9 3d
       -0.10603653 0.1489231 -0.04715782 0.10622599
000090 3c 1d e2 3d 95 4c 48 3c f1 13 60 3d 7e 20 f3 3d
       0.11040732 0.01222529 0.054706518 0.11871432
0000a0 5a c9 88 be fa e4 86 3e 8f d1 2d 3d 94 a1 d2 3c
       -0.2671612 0.2634657 0.04243618 0.025711812
0000b0 56 3f fb 3d 11 9d dc be 0a dc 69 bb de 5c b5 3d
       0.1226794 -0.43088582 -0.0035684132 0.08855604
0000c0 bf a8 c0 bc 49 50 22 3d d3 58 bb 3d 90 53 bf 3e
       -0.023517964 0.039627347 0.09147801 0.3736844
0000d0 f9 6a 53 be 51 b3 75 bd 57 7b 9a 3d 3d ed c8 3c
       -0.20646276 -0.059985463 0.075430565 0.024527187
0000e0 b9 dd 99 bd 78 a3 20 3e da b4 0b 3e a7 d8 67 3e
       -0.07512993 0.15687358 0.13643208 0.2264124
0000f0 a5 8a 26 3e b2 91 54 3c 8f 83 cd 3d 89 db a0 3e
       0.16263826 0.01297419 0.100348584 0.31417492
000100 5a 41 b6 bc 97 5d bf 3d 3f 8e 06 3e a8 24 40 be
       -0.022247959 0.09344023 0.131402 -0.18763983
000110 b4 62 84 3e ae 12 cb bc fd 23 09 3e 9b 46 23 be
       0.25856555 -0.02478918 0.13392635 -0.15944903
000120 95 50 6a bb 2d 08 18 be 25 69 77 be 68 5b dd bc
       -0.0035753597 -0.14846869 -0.24161203 -0.027021125
000130 74 f5 94 bd 7c fa fe 3d 49 dc 9c be 31 32 bf bd
       -0.07273379 0.1245012 -0.30636814 -0.09335745
000140 d8 8d e6 bd 39 04 13 be b3 b1 06 be 82 86 b2 bd
       -0.11257523 -0.1435708 -0.13153724 -0.087170616
000150 75 bd ef bb b7 b8 46 be 87 ab 5f be 63 23 2f bd
       -0.007316286 -0.194064 -0.21842776 -0.042758357
000160 da 07 85 be b3 5b e7 be 28 d2 02 bd 4d 35 78 be
       -0.25982553 -0.45187148 -0.031938702 -0.24239083
000170 58 66 00 bd a3 d5 ae bc 71 be 10 be 2d fb 8b be
       -0.031347603 -0.021342104 -0.14135148 -0.2734007
000180 11 b8 0b 3e 48 0d 8f 3d 98 cb 84 3d 65 c1 4d 3e
       0.13644435 0.06984955 0.06484145 0.20093305
000190 c1 49 17 3e 52 e1 ee 3d fe 8c 95 bc c9 ae 05 bc
       0.14774229 0.1166407 -0.018255707 -0.008159348
0001a0 b5 c5 bb 3d 79 49 ec 3d 59 ae 21 be 4b 63 f7 3d
       0.09168569 0.11537451 -0.15789165 0.120794855
0001b0 c6 49 86 3e 53 6d 01 3e 1c bc 11 be 0e e7 86 3d
       0.2622816 0.1263936 -0.14231914 0.06587039
0001c0 22 55 ee 3d f1 33 c1 3d 82 61 c9 bc ce 91 4a 3e
       0.116373315 0.09433735 -0.024582628 0.19782183
0001d0 e8 3d 36 3e d9 a7 90 3e 65 c3 ce bc c5 5f d5 3d
       0.17797053 0.28253058 -0.025239656 0.10418657
0001e0 68 20 b3 3d 9b 3e 28 bd 90 ec cc bd 57 2d b5 bd
       0.087464154 -0.04107533 -0.10006058 -0.088465385
0001f0 f4 0b f0 bb 6b 9e c3 bd 9e e5 cd 3b db d8 81 bd
       -0.0073256437 -0.095517 0.006283476 -0.0634019
000200 eb cd 0d 3d e3 97 4a bd 13 ab b2 bd b7 d9 50 3d
       0.034620207 -0.049461257 -0.08724036 0.05098888
000210 55 b1 6e 3b e8 1f 8d 3c 15 ae 62 bd c9 75 88 bd
       0.0036421616 0.017227128 -0.0553418 -0.06663091
000220 ab 90 b0 bd 67 6a 0d bd 59 38 99 3c 4e b9 67 3d
       -0.08621343 -0.0345253 0.018703626 0.056573205
000230 42 36 00 bd 18 b4 40 bc 71 c1 2d 3d 1c 91 69 3d
       -0.031301744 -0.011761688 0.04242081 0.057023153
000240 bc f1 7d 3d 17 4f b4 3d 69 4e fe 3e 6e c0 e2 3d
       0.061998114 0.08804148 0.49669197 0.11071859
000250 f6 2a e7 3d da 6e 3a 3e 82 7a f7 3e a8 85 c0 3b
       0.11287491 0.18206349 0.48335654 0.005875308
000260 54 47 3e bd 0c 03 25 3c 69 5d 25 3e 46 45 86 bd
       -0.046454743 0.010071527 0.16148914 -0.065561816
000270 4b 4e 2c 3e 1f 19 4f bc 8e f0 c2 3d 8a b1 81 3c
       0.16826741 -0.012640267 0.095185384 0.015831728
000280 e9 36 60 bd 0b 38 d7 3d 7a 2f 2d 3e 62 f5 4b be
       -0.054739866 0.10508736 0.16912642 -0.19917825
000290 9a eb 28 bd a7 af 02 bd e6 b1 31 3e a5 d0 2f be
       -0.041240312 -0.031905796 0.17353019 -0.17169435
0002a0 64 17 f0 3d 33 f9 a4 3c 2e b3 b3 bc eb 51 d3 bd
       0.117232114 0.020138359 -0.021936025 -0.10318359
0002b0 4a 26 07 bf d3 70 4e be 0d d1 03 bc 7a ec bf 3c
       -0.527928 -0.20160227 -0.008045447 0.02342819
0002c0 9c 8a 10 3d ff b0 1a bd a3 b9 b9 3d 93 fa b3 3c
       0.03528844 -0.037766453 0.090686105 0.021970069
0002d0 a0 d6 a4 be 17 3a fb bc 68 d7 8e 3c ab 74 4d 3d
       -0.32194996 -0.030667348 0.017436698 0.05016009
0002e0 9b 7f 9d bc 0e 78 e7 bb 8f d4 5a bd 2f a4 2b bc
       -0.019225886 -0.007063872 -0.053425368 -0.010476156
0002f0 0d 5e 9f 3e 86 11 66 3e 8b b4 23 3d 2c c4 92 3d
       0.31126443 0.22467622 0.0399671 0.07166323
000300 c4 14 fa 3c fa 0d dd bd 19 67 80 3c 6d f0 b3 3d
       0.03052748 -0.107936814 0.01567416 0.08786092
000310 0d 4b a3 3e 25 90 05 3e 7f 34 1d bd 98 5d 0d 3c
       0.31893197 0.13043268 -0.038380142 0.0086282715
000320 d4 b2 18 bc 2b 15 54 be 9b 3f 5c bd 27 3e ac 3d
       -0.00931998 -0.207112 -0.053771596 0.08410292
000330 83 af 97 3f f5 27 2f bd c6 9f ca 3b e7 a2 f9 bc
       1.1850437 -0.042762715 0.0061835973 -0.030473186
000340 ae b7 b7 3c e1 ec 08 3d 6f dd 55 3c e3 fa 1b ba
       0.022426452 0.03342903 0.013053282 -0.0005950166
000350 af 1d 35 3d df 9e 91 bc 3f 7b 79 bc 14 b2 f2 bc
       0.04421776 -0.017775951 -0.015227138 -0.02962593
000360 c6 69 b7 be 18 1b 48 3b 00 12 6d be 02 0b 2b 3e
       -0.35822886 0.0030533727 -0.23151398 0.16703418
000370 21 86 cd 3d be c5 91 bd ea 00 69 be 69 9b b7 bd
       0.10035349 -0.071177945 -0.22754255 -0.08965189
000380 33 c2 9f bc 52 ca 9c bd a0 15 53 be d3 6d 99 bd
       -0.019501781 -0.07655777 -0.20613718 -0.074916504
000390 40 6e d1 3d 82 37 98 bc 51 6f 63 be e7 6c 0f be
       0.10226107 -0.018581156 -0.22210433 -0.14006387
0003a0 e0 28 9e bd f1 9b a7 bd b9 ad 5c 3d 20 4e 4f be
       -0.0772264 -0.0818404 0.053876612 -0.20244646
0003b0 58 9c 82 3e 74 11 68 be f0 58 71 bd 9b 36 2c be
       0.25509906 -0.22662908 -0.058922708 -0.16817705
0003c0 34 7c 97 bd d1 e3 09 bf 2b 60 73 3e 3b 5a 77 3e
       -0.07396737 -0.53863245 0.23767154 0.24155514
0003d0 30 d3 58 bd 5a 10 cd bc cc 84 32 3e 98 5e 37 bd
       -0.05293578 -0.025032211 0.1743347 -0.044767946
0003e0 59 56 16 be fc fc a3 be d1 ea d0 bb e5 7a 27 bd
       -0.14681377 -0.3202895 -0.0063756485 -0.040888686
0003f0 98 7b 60 be 8a 0d 68 bd 3c 77 16 3d 90 3e 1d 3c
       -0.21922147 -0.056653537 0.036734805 0.009597436

fc1.bias f4 [128]
000000 cd 5b 1c be 4a 91 11 be c8 4c 29 3e bb 35 0d 3e
       -0.15269394 -0.1421558 0.16533196 0.13790028
000010 ed 89 25 be 63 93 1f be a0 1a 94 bd de ae 15 be
       -0.16165896 -0.15583567 -0.07231641 -0.14617488
000020 02 a9 f2 3c 39 a7 78 bd 2c 6a 64 3d 3d 44 1c 3c
       0.029621605 -0.06070635 0.055765316 0.009537754
000030 44 c5 d3 3d 97 3e 51 bd 30 cf 0a 3d a5 58 0b bd
       0.1034036 -0.05108508 0.033888996 -0.034020085
000040 d7 ad 43 3d 9d c0 24 bb c1 77 09 3e 77 4c d3 bd
       0.04777321 -0.002513922 0.13424589 -0.10317319
000050 b6 ea 9a 3d 50 d9 2b bd 3e 5e e0 3d fb 56 1d be
       0.07564299 -0.041955292 0.10955475 -0.15365212
000060 4e 5a 15 be e5 17 37 bd a0 27 c6 3d 81 02 ac 3d
       -0.1458523 -0.044700522 0.096755266 0.08398915
000070 e2 25 52 3d 47 4e b7 bd 32 7b 0f 3e ab b6 ff bd
       0.05130566 -0.08950477 0.14011839 -0.12486013
000080 20 27 45 3d f3 20 e7 3d ca bf 45 3e fc 53 92 3c
       0.048133016 0.112855814 0.19311443 0.017862312
000090 29 24 aa bd 27 69 b0 3d 50 91 39 3e 55 50 31 be
       -0.08307678 0.08613806 0.18121839 -0.173158
0000a0 36 b3 4d be bc 30 c8 bc 1c a3 d0 bd be e2 c0 bd
       -0.20087895 -0.0244373 -0.10187361 -0.09418248
0000b0 32 8e 0f be 61 06 18 3d 00 6f c2 bd 27 0c e3 3d
       -0.14019087 0.03711546 -0.09493828 0.11086302
0000c0 a4 40 3d 3e 36 d8 38 be 69 b1 58 3c 0f c0 41 3e
       0.1848169 -0.18051228 0.013225892 0.18920921
0000d0 4a 69 4d 3e e7 dd 4a bd 2c a2 fa 3d 8b 89 cb 3d
       0.20059696 -0.04952803 0.12237963 0.099383436
0000e0 cf bb 0f 3e b0 bf 94 bc 20 ee 2b bd 97 3b bc bd
       0.14036487 -0.01815781 -0.04197514 -0.09191053
0000f0 d7 6d f3 3c 09 84 5a 3d bb ba a0 bd ae 0e 1f be
       0.029715462 0.053348575 -0.07848116 -0.15532944
000100 72 7b 44 3e ff cb fa bd 2c 73 8d bc da e6 bf bd
       0.19187716 -0.122459404 -0.017266832 -0.09370203
000110 05 4b 37 bd c0 37 4e be 66 c2 be bd 43 7d 86 3d
       -0.04474928 -0.20138454 -0.09314422 0.065668605
000120 e8 d5 0f 3e 2c 77 46 3e 71 97 98 bd 1a a0 fc bd
       0.14046443 0.19381398 -0.0745076 -0.123352244
000130 74 8f 37 be c9 2e 8f bd cb 7c 31 be 2d 9c f9 bd
       -0.17925817 -0.069913454 -0.17332761 -0.12187991
000140 d0 17 8a bd 8d 3d 4f 3e 5f c1 08 be 91 bb 18 be
       -0.06742823 0.20238324 -0.13355015 -0.14915301
000150 3b 8c 33 bd 4a f8 f7 3d b6 f3 f2 bc b2 f2 0d bb
       -0.043834906 0.12107904 -0.029657226 -0.002165955
000160 4f 12 14 3e 11 9a f0 3d b5 69 29 3e 3d 31 f5 bd
       0.14460109 0.11748136 0.1654423 -0.11972282
000170 ad 79 20 3e 89 0f 48 be b6 2f 07 be 44 4e ee bb
       0.15671416 -0.19537176 -0.13201794 -0.0072725136
000180 32 32 90 3d 7e db 9c bc f3 7e 44 3e 62 e9 a1 bc
       0.07040824 -0.01914763 0.19189052 -0.019764606
000190 76 98 b7 bd 7a d9 0d bd df ec db bc b4 a2 cd 3c
       -0.089646265 -0.03463123 -0.026846347 0.025101997
0001a0 64 a7 dc 3d 24 9f 31 be ea 03 d5 3c 3b 60 2f 3e
       0.10774115 -0.17345864 0.026002843 0.17126553
0001b0 6e 7c 17 bd 6e f1 c6 3d 53 12 f2 bc 9d e2 4e 3e
       -0.0369839 0.09714018 -0.029549753 0.20203634
0001c0 63 77 8e bb d4 11 07 3e 99 3c 85 bd fc b6 3f be
       -0.004347728 0.13190395 -0.06505699 -0.18722147
0001d0 a9 21 ad bd f2 1b 11 3e 6c 67 07 3b c8 ce 04 bd
       -0.08453686 0.14170817 0.002066101 -0.032423764
0001e0 67 ea 27 3e 98 33 07 be f9 2a 10 be 07 9c 9a 3d
       0.16398011 -0.13203275 -0.14078893 0.07549291
0001f0 23 32 4d 3e ac a1 81 3d 7f 88 8d bd 74 ff ae 3d
       0.20038657 0.063296646 -0.069108 0.085448176

bn1.weight f4 [128]
000000 8f 1a 25 3f a2 1d c4 3e 70 cc f8 3e 02 41 aa 3e
       0.6449365 0.38303858 0.48593473 0.33252722
000010 d3 9c b5 3e 9a 22 20 bc c1 18 d6 3e ba e4 1e 3f
       0.3547121 -0.009773875 0.4181576 0.6206776
000020 2d a4 a6 3f 16 a4 88 3e 5d 1e 05 3f 1d 6c 17 3e
       1.3018852 0.26687688 0.51999456 0.14787336
000030 c4 d2 07 3f 93 51 cb 3e 55 16 ef 3e 58 e5 2a 3f
       0.5305598 0.39710674 0.46696725 0.667562
000040 1f cb 1a 3f 32 13 73 3e 66 64 00 3f 46 6e 2d 3e
       0.6046619 0.23737791 0.50153196 0.16936597
000050 ad 80 1b 3f 39 d1 07 3f 8e d5 9e 3d 4e 01 b8 3e
       0.6074322 0.53053623 0.07755576 0.35938495
000060 f2 58 22 3f da b6 c9 3e d0 34 86 3e 50 4e c7 3e
       0.6341697 0.39397317 0.26212168 0.38926935
000070 d5 8f 71 3f 3e cc cd 3e af a3 49 3e 19 22 d3 3e
       0.94360095 0.40194887 0.19691347 0.41236952
000080 ff be 07 3f df 76 0b 3f 95 58 1b 3f e3 e8 fa 3e
       0.5302581 0.5447826 0.6068204 0.49005803
000090 21 08 8e 3e 35 46 a5 3e 02 04 c6 3e 4c 4a 20 3f
       0.27740577 0.32280126 0.38674933 0.6261337
0000a0 84 1f e2 3e 50 2a ae 3e 89 60 38 3f e6 be 52 3f
       0.4416467 0.34016657 0.720223 0.8232254
0000b0 9d bf 6d 3e cb 8d 0a 3f 62 7f 4a 3f 1a 88 19 3f
       0.23217626 0.5412261 0.7910062 0.599733
0000c0 b1 0d c9 3e 7c fd f6 3e 62 3c 06 3f 88 cc e4 3e
       0.39268258 0.48240268 0.52435887 0.44687295
0000d0 b9 fc aa 3e 7b ab b4 3e be 07 51 bc e7 3f ae 3e
       0.33395937 0.3528708 -0.012758194 0.3403313
0000e0 ef 8a 6e 3e ba 6f ef 3e b5 73 26 3e 46 6d c2 3e
       0.23295186 0.46764928 0.16255076 0.37973994
0000f0 31 cb 1a 3e 48 85 1b 3f f8 10 70 3e e5 81 5d 3e
       0.15116574 0.60750246 0.23443973 0.21631582
000100 43 50 87 3e 81 61 fd 3e 76 69 2f 3e 56 d4 1c 3f
       0.26428422 0.49488452 0.17130074 0.612615
000110 c7 04 45 3e b4 09 47 3e 09 11 34 3f 9f 78 9e 3e
       0.19240104 0.19437295 0.70338494 0.30951402
000120 90 33 6a 3e 43 65 80 3e 50 4f 89 3e 51 26 af 3f
       0.22871232 0.25077257 0.26818323 1.3683568
000130 cc 5c fb 3e 70 8c 13 3f 4e a1 04 3f fa 57 04 3f
       0.49094236 0.57636166 0.5180863 0.5169674
000140 a4 2e f5 3e 93 50 22 3f 4e 09 94 3e e6 e2 85 3e
       0.47887146 0.63404197 0.2891335 0.26149672
000150 eb c3 c9 3e 5e 66 c9 3e 4a db 84 3e 6f e1 4b 3f
       0.39407286 0.39335912 0.25948554 0.7964086
000160 67 56 f1 3e 34 21 b5 3e bb 01 b7 3e ad 94 98 3e
       0.47136232 0.35376894 0.35743508 0.2980093
000170 ed ae 41 3f b5 b7 b5 3e 52 a7 0a 3e 8f 98 a4 3e
       0.7565754 0.3549172 0.1354039 0.32147643
000180 be 66 67 3e 85 3b 1d 3f e4 a6 d7 3e ca e2 75 3e
       0.22597787 0.61418945 0.42119515 0.24012294
000190 6e bd c0 3e 28 f4 5b 3f 0b 63 36 3f b7 19 a5 3e
       0.37644523 0.8591943 0.7124488 0.3224618
0001a0 1a 11 88 3e fb 20 61 3e 83 2f 19 3e bb 90 3e 3e
       0.26575547 0.21985237 0.1495953 0.18609898
0001b0 21 dc bf 3e b0 4c 5f 3f 56 45 b7 3e 79 bb 10 3f
       0.37472633 0.8722639 0.35795087 0.5653606
0001c0 10 27 13 3e 1e 21 1a 3f 31 a6 52 3f 7f c3 55 3e
       0.1437037 0.6020678 0.8228484 0.20875357
0001d0 3c 69 e2 3e 94 0b c1 3e 4b 68 e0 3e ae eb 10 3f
       0.44220912 0.37704146 0.4382957 0.5660962
0001e0 c3 c2 b8 3e 89 03 60 3e b0 e2 00 3f 86 28 88 3e
       0.3608609 0.21876349 0.503459 0.26593417
0001f0 96 59 d2 3e 0a 51 94 3e 3a 84 94 3e 49 ca ad 3e
       0.41083974 0.28968078 0.2900713 0.33943394

bn1.bias f4 [128]
000000 6b b3 6c be 09 6e b7 bd 6e ee e8 bd dc d5 49 be
       -0.23115318 -0.089565344 -0.11373602 -0.19710487
000010 49 9f 32 bd e0 73 85 bd 65 5e a1 bd ec 9f 32 be
       -0.043608937 -0.06516242 -0.078793325 -0.17443818
000020 65 95 3c 3c f5 ac bc 3a 28 c7 ce be 37 01 b2 bd
       0.011510228 0.0014394807 -0.4038632 -0.08691638
000030 2a fb 19 bf 96 b5 3e be b3 ac e3 be e8 91 27 bf
       -0.6014887 -0.18623957 -0.44467697 -0.6545701
000040 45 53 fd be fc b8 18 bc 2d 9c 6d be 79 ac 0f be
       -0.49477592 -0.009321447 -0.23204108 -0.14030637
000050 72 7a bb 3d 51 09 82 be a3 64 64 bd e5 ef 93 be
       0.09154214 -0.25397733 -0.055760037 -0.28893963
000060 31 fc b8 be eb dd f7 be e0 10 ae 3d b1 8b 8e be
       -0.36129907 -0.48411497 0.084993124 -0.2784095
000070 fe 43 bd 3d d2 94 d6 be 2c 1d 65 bc ee 74 10 bf
       0.09241484 -0.41910416 -0.013984006 -0.5642842
000080 8f 5e 67 bc 23 8a ef be 41 1c ac bd ee 49 a8 be
       -0.014121666 -0.46785077 -0.084038265 -0.32868904
000090 c2 cc 3a be fc 28 86 bd ce c7 62 be 1a 32 2f bf
       -0.18242171 -0.06550786 -0.22146532 -0.68435824
0000a0 ce 1f b4 bd 6b 3a 8b be 50 cc 84 3d 16 f0 3b be
       -0.08795129 -0.27193007 0.06484282 -0.18353304
0000b0 be 19 11 3e 7b fb be be 6e 26 87 bd f0 04 e7 be
       0.14169976 -0.3730124 -0.06599127 -0.45120955
0000c0 f4 c6 d8 3d 83 d3 ae bc 83 90 3d be 38 99 07 bf
       0.10584822 -0.021341091 -0.18512158 -0.5296817
0000d0 ea 82 b7 be 3e fe 6e bd 22 e4 82 bd c0 8e 64 be
       -0.35842067 -0.058347933 -0.06391169 -0.2232008
0000e0 73 56 80 bc a5 63 5f be c9 d1 a3 bc 9d 77 99 be
       -0.015666222 -0.21815355 -0.019997494 -0.2997407
0000f0 25 d6 ca bd 4e 6c f5 be 52 1e 99 bc 6b ea 22 be
       -0.09904126 -0.47934192 -0.018691216 -0.15909736
000100 23 a4 6b bd 15 eb 01 bf be c0 05 be fd c7 02 bf
       -0.05752958 -0.5074933 -0.13061807 -0.5108641
000110 32 2f 86 bd 32 05 19 bd 37 ad 84 3d 7e 3a 76 be
       -0.065519705 -0.03735847 0.064783506 -0.2404575
000120 07 00 f5 bd a9 e6 8a 3c a5 33 e6 bd 11 70 39 bd
       -0.11962896 0.01695569 -0.11240319 -0.04527289
000130 13 f8 61 be cb 55 89 be 2f fc 83 be 02 78 6f bd
       -0.22067289 -0.26823267 -0.25778338 -0.058464058
000140 92 bc cf be 18 d9 fc bc 9f ac 3e be f6 1d 3d be
       -0.40573555 -0.030865237 -0.18620537 -0.1846846
000150 c9 39 df bc 81 06 6b be 86 16 41 be 4f 2a ca bd
       -0.027249234 -0.229517 -0.18856248 -0.09871351
000160 eb c6 14 be be 27 a3 be f1 d4 7c be fe dd 03 3c
       -0.14529006 -0.31866258 -0.24690606 0.0080485325
000170 c7 a5 21 be 10 91 a7 bd bc c7 b8 bd 43 d5 c9 be
       -0.15785895 -0.08181965 -0.09022471 -0.39420518
000180 22 45 93 bd 56 2b 29 bc 97 64 c9 be 67 a5 33 3d
       -0.071909204 -0.0103252735 -0.39334556 0.04385891
000190 af 22 92 be 4b ca c2 bd b0 be dc bd eb 7c 1a be
       -0.28542086 -0.095112406 -0.10778558 -0.15086715
0001a0 89 25 c0 bc 2f 3d 81 bd bd 5e 00 3e 2a c4 f4 bd
       -0.023455398 -0.06310498 0.1253614 -0.11951478
0001b0 29 92 14 be e0 a3 50 bf 90 10 b6 be b0 f3 b3 bd
       -0.1450888 -0.81500053 -0.3555951 -0.08786714
0001c0 ce dd a1 3d e6 b5 54 be 0d c6 5b be b5 18 d1 bd
       0.07903634 -0.20772514 -0.21462269 -0.102097906
0001d0 d7 fd ae be bd 95 18 be 91 6f 54 be 2a 42 98 be
       -0.3417804 -0.1490087 -0.20745684 -0.2973798
0001e0 4d 9c d4 bd 75 a9 13 be 65 13 c9 be e0 d8 95 be
       -0.103813745 -0.14420111 -0.3927261 -0.29267025
0001f0 39 33 98 be 54 6e 61 be f1 0f 47 bd bc 35 13 be
       -0.2972658 -0.22014743 -0.048599187 -0.14375967

bn1.running_mean f4 [128]
000000 3a ad 1c be 9f 63 11 be 4b 63 29 3e 61 32 0d 3e
       -0.15300456 -0.14198159 0.16541784 0.1378875
000010 82 c0 25 be 9b 92 1f be 23 64 94 bd e6 57 15 be
       -0.16186717 -0.1558327 -0.07245662 -0.14584312
000020 31 02 ee 3c c2 0a 79 bd 56 8f 63 3d 7a 4d 1b 3c
       0.02905378 -0.060801275 0.055556618 0.009478921
000030 3c 2f d3 3d 66 92 50 bd e6 5b 0c 3d 55 6a 0a bd
       0.103117436 -0.050920866 0.03426733 -0.033792812
000040 b1 f9 43 3d 1c da 1a bb cd 7a 09 3e 1f 7a d3 bd
       0.047845546 -0.0023628538 0.13425751 -0.10326027
000050 a1 b8 9a 3d 4e b9 2b bd 33 7b e0 3d 17 55 1d be
       0.075547464 -0.041924767 0.109609984 -0.1536449
000060 87 95 15 be 48 3d 36 bd b5 9f c5 3d 87 2a ac 3d
       -0.14607821 -0.044492036 0.09649602 0.08406549
000070 e6 5c 4f 3d ce 83 b7 bd 21 72 0f 3e ab 80 ff bd
       0.050625704 -0.089606866 0.1400838 -0.12475713
000080 3f f7 44 3d 0c a6 e7 3d 08 da 45 3e cb c5 92 3c
       0.048087355 0.11310968 0.19321454 0.01791658
000090 4a d4 a9 bd c7 43 b0 3d c7 9a 39 3e e4 01 31 be
       -0.08292444 0.086066775 0.18125449 -0.17285877
0000a0 61 97 4d be df 88 c9 bc bd 11 d0 bd 16 a9 bf bd
       -0.20077278 -0.024601398 -0.10159633 -0.093584225
0000b0 50 ba 0f be ec 2d 18 3d a5 e9 c0 bd da 9b e3 3d
       -0.14035916 0.03715317 -0.09419564 0.11113711
0000c0 4d 28 3d 3e 09 f7 38 be f4 5f 58 3c 43 1f 42 3e
       0.18472405 -0.18062986 0.013206471 0.18957238
0000d0 aa 6c 4d 3e c6 b4 4b bd 70 b7 fa 3d 3d b2 cb 3d
       0.20060983 -0.049732946 0.12242019 0.09946106
0000e0 32 12 10 3e 4f de 91 bc 4d ca 2b bd ba c1 bb bd
       0.14069441 -0.0178062 -0.041940976 -0.0916781
0000f0 45 ec f4 3c 64 d1 5a 3d 23 f2 a0 bd 45 13 1f be
       0.029897818 0.053422347 -0.07858684 -0.15534694
000100 3a 68 44 3e 4c 76 fa bd 08 f9 8d bc 24 47 bf bd
       0.19180384 -0.122295946 -0.017330661 -0.09339741
000110 ae 14 37 bd f5 49 4e be a2 77 be bd ab 5c 87 3d
       -0.044697456 -0.201454 -0.09300162 0.06609472
000120 2c f3 0f 3e b9 60 46 3e ea 58 98 bd 97 20 fd bd
       0.14057606 0.19372834 -0.07438834 -0.12359732
000130 33 96 37 be 8c 01 8f bd 35 af 31 be 5b 7e f9 bd
       -0.1792839 -0.06982717 -0.17351992 -0.121823035
000140 bb 0f 8a bd 8b e7 4f 3e c2 e0 08 be 31 aa 18 be
       -0.067412816 0.2030317 -0.13366988 -0.14908673
000150 4d 7b 33 bd 80 e0 f7 3d 6c ec f3 bc a4 d8 d2 ba
       -0.04381876 0.12103367 -0.02977582 -0.0016086292
000160 5e 52 14 3e 49 c5 f0 3d 40 8b 29 3e b2 81 f5 bd
       0.14484546 0.11756379 0.16557026 -0.11987628
000170 c4 3f 20 3e 68 f1 47 be 7a 10 07 be 3a c2 ec bb
       0.15649325 -0.19525683 -0.13189879 -0.007225302
000180 c5 07 90 3d 63 55 9b bc 08 a0 44 3e ae c8 a1 bc
       0.07032732 -0.018961614 0.19201672 -0.019749012
000190 53 15 b7 bd 25 8e 0e bd 1e 22 da bc e1 e4 cd 3c
       -0.08939614 -0.03480353 -0.026627596 0.025133552
0001a0 3f 1e dc 3d 9a 7a 31 be 5c ba d3 3c c5 6b 2f 3e
       0.107479565 -0.17331925 0.025845699 0.17130955
0001b0 2b c9 17 bd 83 21 c7 3d c3 f0 f0 bc 4b ac 4e 3e
       -0.037057083 0.09723189 -0.02941168 0.20182912
0001c0 99 b0 97 bb 75 23 07 3e 7f bf 84 bd 8a a1 3f be
       -0.0046292064 0.1319712 -0.064818375 -0.18713966
0001d0 bf 87 ac bd 41 dd 10 3e 1b 46 11 3b bf 55 04 bd
       -0.08424329 0.14146902 0.002216703 -0.032308336
0001e0 fb d1 27 3e 48 14 07 be 05 12 10 be ad 1e 9b 3d
       0.16388695 -0.1319133 -0.14069374 0.0757421
0001f0 c9 5c 4d 3e 15 fe 80 3d 34 8e 8d bd c6 d6 ae 3d
       0.20054926 0.06298462 -0.06911889 0.085370585

bn1.running_var f4 [128]
000000 15 42 84 3e b1 1b 24 3e 5b 9f 03 3d 49 3e 14 3e
       0.25831667 0.16026188 0.032134395 0.14476885
000010 3a 98 cc 3e d6 95 14 3c 81 f0 91 3d c4 db a4 3e
       0.3995989 0.009068927 0.071259506 0.32198918
000020 a2 93 b7 3f 77 3c 52 3e 7d 80 2f 3e b0 69 3a 3d
       1.4341929 0.20530878 0.17138858 0.045510948
000030 62 97 aa 3d e7 d7 01 3e d0 20 f6 3d 15 8e 49 3e
       0.08329655 0.12680016 0.12017977 0.19683106
000040 c1 d0 a4 3d 2c 81 21 3e a8 60 d1 3d 99 74 1d 3d
       0.08047629 0.15771931 0.10223514 0.038441274
000050 81 51 20 3e 9b bf 55 3d 25 5e 13 3d 1d 9c 2d 3d
       0.15656091 0.052184682 0.035978455 0.04238521
000060 1f 5b cb 3d a6 45 d3 3d 19 62 7f 3d c0 a9 16 3e
       0.09929489 0.10316019 0.062349413 0.14713192
000070 76 39 35 40 c5 ea 8d 3d ae a1 e5 3d 89 6b 0f 3e
       2.8316321 0.06929544 0.112124786 0.14005865
000080 3c 58 d7 3d 50 7b 40 3e 68 91 4b 3d 93 ad 77 3d
       0.10514876 0.1879704 0.049699217 0.060468268
000090 a7 30 ae 3e f0 cb 23 3d fc 2b 99 3d 5b 26 6b 3e
       0.34021494 0.03998941 0.074790925 0.2296385
0000a0 1a 76 0f 3e 6e 12 dc 3c 94 f0 97 3d 4f 1d c7 3f
       0.14009896 0.026864257 0.074189335 1.5555819
0000b0 85 f5 80 3d b6 37 aa 3c 1b 3e 27 40 76 69 e1 3d
       0.06296829 0.020778518 2.6131656 0.11006443
0000c0 f3 60 02 3e 4b 26 cc 3e ac 73 74 3e 4d df a6 3e
       0.12732296 0.39872965 0.2387225 0.3259224
0000d0 35 43 8a 3d f8 42 87 3e 9a 75 fd 3c f4 84 1e 3e
       0.067511 0.2641828 0.030939866 0.15480405
0000e0 e3 13 a9 3e bf 45 ed 3d b1 5d 9a 3d b6 a4 8b 3d
       0.33022985 0.11585569 0.075374015 0.068185255
0000f0 5e 8d 64 3d be c0 ba 3d e4 b0 fb 3d 3b 93 05 3d
       0.05579888 0.09118794 0.122895986 0.032611113
000100 77 2a 8b 3d 6a 33 8e 3e 4c 28 36 3d 29 4f 85 3e
       0.06795209 0.277736 0.044472024 0.26036957
000110 e6 40 9f 3d 85 6e f3 3c 97 ba 48 3d ef 24 c4 3e
       0.0777605 0.029715786 0.04900607 0.38309428
000120 29 34 d7 3d cb 1c 07 3e 38 69 23 3d 8e 96 c1 3f
       0.10507996 0.13194577 0.039895266 1.5124071
000130 30 5a 2d 3e 00 7c 6c 3d e0 9f 3d 3e 2f 36 1d 3d
       0.16928935 0.057735443 0.18518019 0.03838175
000140 6f 70 b9 3d 65 f2 b6 3f 28 5f c0 3d c6 f2 93 3d
       0.09054648 1.4292723 0.093931496 0.0722404
000150 48 66 1a 3e 11 b4 08 3e f2 0e 26 3d c1 ad 92 3f
       0.1507808 0.1334994 0.040541597 1.1459275
000160 84 aa 81 3d fd 44 18 3d 7e c9 97 3d 9f 30 1d 3d
       0.063313514 0.037175167 0.074114785 0.038376447
000170 ea 90 76 3d 4e d5 30 3e de d6 99 3d cd 89 9d 3d
       0.060196795 0.1726887 0.07511686 0.07692299
000180 03 77 ed 3c df f4 d1 3d 16 82 33 3e e0 b7 dc 3c
       0.028987413 0.102517836 0.17530093 0.026943147
000190 05 fd 87 3e b3 b1 7a 3d bc ab 04 3e b4 f5 83 3d
       0.26560226 0.061204623 0.12956136 0.064433485
0001a0 de 77 7c 3d 78 cd 90 3d 7f b6 59 3e c0 a2 83 3d
       0.06163775 0.0707044 0.21261023 0.064275265
0001b0 98 9d 0d 3e f3 fd 92 3e 91 bd 43 3e 75 10 66 3e
       0.13829648 0.28709373 0.19115283 0.22467215
0001c0 a4 73 ea 3d 61 7b 09 3d e1 27 0d 3d 9f 9f 9b 3d
       0.11447838 0.03356493 0.03446186 0.07598805
0001d0 32 49 f4 3d 16 69 74 3d 4f a5 0d 3e 0c f6 27 3e
       0.119280234 0.05967053 0.13832591 0.16402453
0001e0 4e 85 19 3d 30 77 fe 3d 77 b3 ab 3d af 9b e9 3d
       0.037480645 0.12425077 0.083838396 0.114066474
0001f0 cf da 1a 3d 9d b8 59 3d 91 7e ad 3d 7b 53 02 3e
       0.03780633 0.053154577 0.08471406 0.12727158

fc2.weight f4 [64, 130]
000000 96 03 6d 3e a6 d0 99 bd c3 c4 ab 3c 6e 1b 74 be
       0.23145899 -0.075105 0.020967847 -0.23838589
000010 72 78 cf 3d e4 86 23 3d 57 2d 94 be c6 25 2d be
       0.10130395 0.039923564 -0.28940842 -0.1690894
000020 45 c8 0f bf ce 0a b8 3d fb ce ba be 56 7e b8 bd
       -0.5616496 0.08986436 -0.3648604 -0.09008472
000030 b5 1b 9c be b1 16 0b 3b 2a a6 74 3e d2 96 a8 bd
       -0.3048989 0.0021223242 0.23891512 -0.08231892
000040 0b 9d f0 bd b8 a6 a0 3e 2c 49 5c bd 8b ec ae 3b
       -0.117487036 0.31377196 -0.05378072 0.0053382567
000050 59 4b f7 bd 85 27 49 3d 9b cd cb bd 37 4c 6c be
       -0.12074918 0.049109954 -0.099513255 -0.23075949
000060 a2 18 96 3c 97 06 1a be 32 9f df be fb ba ba bc
       0.018322293 -0.15041576 -0.43676144 -0.022794237
000070 da 7d ca 3c 9c cf 20 bf 08 6a f2 bd 73 29 dc 3a
       0.024718214 -0.62816787 -0.1183663 0.0016797021
000080 2a 01 49 3e d8 8a 76 3d ea b7 06 3e b2 1e 41 be
       0.1962935 0.060191005 0.13156095 -0.18859366
000090 8b 50 58 3e 09 20 71 3d bd f7 a4 3d f0 be 87 3e
       0.21124475 0.05886844 0.08055065 0.2651286
0000a0 d2 86 fb bd 96 dc 75 be 53 e4 e5 bc 1e 16 23 3e
       -0.12281574 -0.24009928 -0.028062975 0.15926406
0000b0 f9 fa db bd 12 e9 8f bd 44 07 5f 3d b3 a5 91 bd
       -0.107412286 -0.070268765 0.05445029 -0.07111683
0000c0 f1 c0 de bd ad 13 dd bd e9 e2 07 be ef e4 28 bf
       -0.108766444 -0.107947685 -0.13270153 -0.65974325
0000d0 6e 50 44 be dd a6 22 be ee 4c 92 bd 70 07 1c be
       -0.19171306 -0.15883966 -0.071435794 -0.15237212
0000e0 a3 a8 1a 3e 66 92 1d be 19 2d c7 3d 24 50 44 bd
       0.15103392 -0.15387878 0.097253986 -0.04792799
0000f0 ba c2 ba 3e 56 af 42 3e 67 3e 64 be 3f 35 81 be
       0.3647669 0.19012198 -0.2228943 -0.25235936
000100 31 fd f3 be 3a f7 86 be 7a 30 09 bd 41 87 40 be
       -0.47654107 -0.26360494 -0.033493496 -0.18801595
000110 7f 54 15 be 46 83 ec 3c 4e 12 0a be f6 51 b5 bd
       -0.14583014 0.02887119 -0.13483545 -0.088535234
000120 4a bd e6 3c bb ec 1c 3d ec a9 26 3d 00 37 e6 3c
       0.028166432 0.0383117 0.040689394 0.028102398
000130 f9 8d f2 3d e3 8a 2f bd d6 63 aa bd c4 5c 6e bd
       0.118434854 -0.042857062 -0.083198234 -0.058193937
000140 f4 6b 27 3e 2f d4 bd be 5e 57 8e 3d 18 dd 45 3e
       0.16349775 -0.37075946 0.06950258 0.19322622
000150 4b 69 0d 3e 84 ba 92 3e f5 8c 58 3d e3 92 90 bd
       0.13809697 0.28657925 0.052868802 -0.070592664
000160 a5 f3 41 be 28 f6 b1 be 84 30 88 3d 96 bd 20 be
       -0.189406 -0.34758115 0.066498786 -0.15697321
000170 a9 db 0b be 6a 65 92 bd 37 12 2e be 4e 02 0e 3d
       -0.13658012 -0.071482494 -0.16999136 0.034670167
000180 57 04 99 bc 74 3f 4f 3d 1b e8 a7 bc 30 89 38 be
       -0.018678827 0.050597623 -0.020496419 -0.18021083
000190 9a 17 92 be 7f 6e d0 be b9 3e 52 be 7a cc 8b bc
       -0.28533632 -0.40709302 -0.2053174 -0.017065275
0001a0 ee 6d ed 3d a1 63 4c 3e e4 73 39 3d d7 1d 6e bc
       0.11593233 0.1995988 0.045276538 -0.014533482
0001b0 41 9c 3d 3c dd 83 9b 3d 60 a6 39 bd b9 a1 49 3e
       0.011572898 0.0759351 -0.045324683 0.19690599
0001c0 c1 58 7c be f7 c6 4e 3e 93 3d ab 3b 10 d3 1f be
       -0.24643232 0.20193087 0.005225846 -0.15607858
0001d0 04 f2 1c bd 03 35 79 3e d4 cf 82 be fc 2f 2f bd
       -0.03831674 0.24336629 -0.25549185 -0.04277037
0001e0 2c f5 85 be 29 79 19 be ea 33 11 be ee 93 1e 3e
       -0.26163614 -0.14987625 -0.1417996 0.15486118
0001f0 a4 a7 85 bd 4f b4 c2 bb 8b 52 27 3c ec 8e db 3d
       -0.065261155 -0.0059419046 0.010212551 0.107206196
000200 a5 e5 fa 3c 58 92 e7 bb 89 1f 80 bb 4f cb 94 be
       0.030627081 -0.007067006 -0.0039100093 -0.29061362
000210 ed 0c 98 be 35 d5 68 be 8a dc 34 bd 21 97 87 3d
       -0.29697362 -0.22737582 -0.044155635 0.066206224
000220 ea f1 0e 3d 71 8a 30 be 8b 91 89 be 3c 97 8b 3d
       0.034898676 -0.17240311 -0.26868853 0.06815955
000230 b3 28 09 3c 4c f1 7e be 0c 01 20 3e cc b7 8e be
       0.00837152 -0.24896735 0.156254 -0.278746
000240 f3 98 1d 3e 49 a7 07 be ce 18 b5 bb 04 72 d9 3d
       0.15390377 -0.13247408 -0.0055266386 0.1061745
000250 53 75 32 3e 87 23 6b be 20 f8 88 3b f5 17 f7 3d
       0.17427568 -0.22962771 0.0041799694 0.12065116
000260 88 4a 8d be 70 da 07 3e ba 93 d7 3d da d3 02 be
       -0.27595925 0.13266921 0.105262235 -0.12776127
000270 48 b9 12 bf d2 77 c1 ba f0 1b 48 3e a3 1d 83 be
       -0.57313967 -0.0014760441 0.19541907 -0.2560855
000280 40 aa 09 3e 8c 63 85 be 0b a7 1d be ec 34 9a bd
       0.13443851 -0.2605251 -0.15395753 -0.07529625
000290 0c 77 c9 3b d1 e9 28 3e d9 bc e1 3e 2a 2b e8 bd
       0.0061482247 0.16495444 0.44089392 -0.11336358
0002a0 d3 82 41 3e 75 f3 19 be 1f be 5c be 71 fe 0f bd
       0.18897562 -0.15034278 -0.215569 -0.035154764
0002b0 25 42 e0 3b bf 24 27 bd 76 e9 9c bd 90 63 32 bf
       0.0068438225 -0.04080653 -0.07661717 -0.6968317
0002c0 17 66 26 3d 8e 91 ad be 51 ba a1 3e 3e cb 51 be
       0.040624704 -0.33900112 0.3158746 -0.20487687
0002d0 0f d5 d8 bc f3 2a 81 be 28 d5 af bd d7 59 40 3e
       -0.026468782 -0.2522808 -0.08585578 0.18784271
0002e0 e5 75 87 3d 2a 60 87 3e a3 77 77 3e bf bd 11 bf
       0.066142835 0.26440555 0.24166732 -0.56930155
0002f0 e4 03 52 3e 39 72 24 bd cb 11 06 3e e1 48 42 bd
       0.20509297 -0.040147994 0.13092725 -0.047432784
000300 1a 16 b9 3c be 9b 00 bd 6b a1 95 be f8 74 b5 3e
       0.022593547 -0.031398527 -0.29224715 0.35440803
000310 22 89 36 be f1 40 84 bd 61 7b f6 3d 57 84 f9 bc
       -0.1782575 -0.06457699 0.120352514 -0.030458612
000320 7e 81 04 bf 4d b2 4d 3d 10 a9 7e 3b 97 4c 5e 3e
       -0.5176009 0.05021887 0.0038858093 0.21708904
000330 cc 95 49 3e d2 e6 0e 3e c9 78 49 3d 5f 33 c2 bd
       0.19686049 0.13955238 0.049187455 -0.094824545
000340 13 18 4c be 05 21 08 be 27 50 74 bd 09 ce 0b bc
       -0.19931059 -0.13293846 -0.05964675 -0.008533009
000350 15 a2 d0 be ab 71 c9 bd 35 7b 97 3e b4 c2 a8 be
       -0.4074866 -0.098361336 0.29586187 -0.32961047
000360 47 56 4c 3d 85 c7 11 bd 72 1a 4b 3e f8 b0 bb bd
       0.049886968 -0.035590667 0.19834307 -0.091646135
000370 e2 90 fa bd f4 a4 b1 be 15 79 19 bd 9a 6b 1f bd
       -0.122346655 -0.34696162 -0.03746899 -0.038920976
000380 2e 37 88 be 9b db d6 bc 78 ba 31 be bb 17 a2 3d
       -0.266046 -0.026227763 -0.17356288 0.079146825
000390 fe 2a 28 be 13 90 7e be 1a 58 48 3e 1d 4f 96 be
       -0.1642265 -0.24859647 0.19564858 -0.29357234
0003a0 d8 a5 ed 3b 67 b2 08 be 8d 81 15 3e 28 d2 d0 bd
       0.007252436 -0.13349305 0.14600201 -0.10196334
0003b0 d6 94 bd 3c 83 ea bd bc 47 a3 9e bd d0 15 00 bf
       0.02314226 -0.023183113 -0.077459864 -0.50033283
0003c0 0a 48 4a be cb 4a e3 3d 50 a1 89 be 30 c0 69 39
       -0.19754043 0.1109825 -0.26880884 0.00022292207
0003d0 18 84 fe 3d 56 12 fc be 57 4e 0d bf c4 3b e2 3d
       0.12427539 -0.4923274 -0.5519766 0.11046556
0003e0 9c f4 ef bb 41 09 cd ba f2 7e 50 be a0 7f cf bd
       -0.007322861 -0.0015643017 -0.20360926 -0.101317644
0003f0 f9 08 e8 bb 88 b5 b3 3d a1 65 3d be cd 9a c4 bd
       -0.0070811477 0.08774859 -0.184958 -0.095998384

fc2.bias f4 [64]
000000 93 2d 28 3d f5 47 6b 3d 0c 4e 8f bc 39 b0 b7 bc
       0.041059088 0.05744167 -0.01749327 -0.022422897
000010 bf 95 9f bd 02 22 1a bb 46 9b ec bc a6 32 cd 3c
       -0.07792234 -0.0023518805 -0.028882634 0.025048565
000020 e7 3c 43 bd bf d6 ab 3d e4 ad f1 ba 33 ca 94 bc
       -0.047665503 0.08390569 -0.0018438664 -0.018162822
000030 4f 9f 86 3d 9d 36 d4 bc 54 b3 8f 3d 07 d0 72 bc
       0.065733545 -0.025904948 0.07016626 -0.014820105
000040 ba e4 60 3d 62 42 91 3b ad b1 04 3d 21 c4 49 3d
       0.05490563 0.0044329623 0.032396007 0.04925931
000050 1d d8 70 3d e5 84 3c 3d d1 e3 ac bc a7 56 53 3d
       0.05879985 0.046025176 -0.021104725 0.05159631
000060 bb d1 85 bc f3 6a 5b 3d 95 28 3d 3d d6 23 63 3d
       -0.016335359 0.05356879 0.04618128 0.055454098
000070 9e 92 c1 3c 97 e3 c8 3a e9 61 4c 3d 9e 0b 70 bd
       0.023629483 0.0015326616 0.049898062 -0.05860483
000080 4b cf 8a bd fb d9 a8 bd 2e 2b 60 3d 72 fe c3 bc
       -0.06777819 -0.082447015 0.05472868 -0.02392504
000090 4b f5 bf bc 13 a9 13 3d da b0 c7 3c 5a ef 3e bd
       -0.023432394 0.036049914 0.024376322 -0.046614982
0000a0 02 22 b2 bc 70 4a 83 bd 12 ee a7 bd d1 a1 3f 3d
       -0.021744732 -0.06410682 -0.08199705 0.04678518
0000b0 87 e4 21 3b e6 35 9f 3d 74 31 07 3d 0f 85 6f 3d
       0.0024702863 0.07773952 0.033006147 0.058476504
0000c0 7a f3 03 bb 63 45 d7 3c 93 a5 23 bd 27 32 61 bd
       -0.0020134137 0.026278203 -0.039952826 -0.05497947
0000d0 7c 8a 4e 3d 0d be 0d bc ea 91 6e 3d f1 ec 90 3d
       0.050425038 -0.008651269 0.058244623 0.07076443
0000e0 bb 0b 90 bd cf 6c 4d bd f5 43 a1 3d 2d 80 9d bc
       -0.070334874 -0.050152596 0.0787429 -0.019226158
0000f0 a5 d9 a0 3b d5 32 eb bc d4 06 9f 3d 2c ea 94 bd
       0.0049087577 -0.028710762 0.07764974 -0.07271227

bn2.weight f4 [64]
000000 6d 0a 0c 3e af c9 15 3e 8f 2b 8d 3e 2a 77 68 3e
       0.13675852 0.14627717 0.27572295 0.22701707
000010 f1 d8 7d 3e a2 85 2d 3e b2 72 a1 3e 96 ea 0f 3f
       0.24789788 0.16945508 0.31532818 0.56217325
000020 52 c8 5a 3e 09 4e e4 3e f1 b4 8b 3e 61 aa b4 3e
       0.21365479 0.44590786 0.27286485 0.3528624
000030 7d a0 2a 3e e8 64 10 3e 1d bf 5c 3e e0 d5 e8 3e
       0.16662784 0.14100993 0.21557279 0.45475674
000040 59 c2 c8 3e 54 00 3a 3e 19 cd 41 3f 53 1c 55 3e
       0.39210775 0.18164188 0.7570358 0.20811586
000050 29 52 3e 3e 6d 9d 7e 3e 1c 4f 57 3e be b3 14 3f
       0.18586029 0.2486474 0.21026272 0.58086765
000060 7b fb 68 3e bf 7b b2 3e 0a a0 02 3e 15 d2 e7 3d
       0.22752182 0.34860036 0.12756363 0.11319367
000070 93 4e 6d 3e 16 55 03 3f a2 d1 d0 3e 31 39 b3 3e
       0.23174505 0.51301706 0.40784937 0.3500457
000080 16 54 c3 3e 21 f2 d7 3e 27 79 70 3e d4 d3 a2 3e
       0.3815009 0.42176917 0.23483716 0.31802237
000090 f3 16 75 3e b1 f1 1c 3e 86 c0 35 3e aa ac 8b 3e
       0.23934536 0.15326573 0.17749223 0.2728017
0000a0 bf 4b 18 3e 78 37 8c 3e 37 af 01 3f 9e 85 92 3e
       0.14872645 0.2738607 0.5065798 0.28617567
0000b0 c5 64 1c 3e cf a7 12 3f d1 54 1c 3f c0 7c 3b 3f
       0.15272816 0.57287306 0.6106692 0.7323723
0000c0 b0 ef 31 3e 95 7f d4 3d 6a 4a cf 3e 9a 5a c1 3e
       0.1737659 0.10375897 0.4048646 0.37764436
0000d0 27 8f 01 3e 42 2a ab 3e 55 ba af 3e 6f 25 61 3e
       0.12652265 0.33430678 0.34321848 0.21986936
0000e0 6c 96 a3 3e fd e0 1b 3e 23 45 72 3a ae b3 c3 3e
       0.319507 0.15222545 0.00092418696 0.38223022
0000f0 3b bd 40 3e 5d 48 cc 3e cb 6d e0 3e 34 4c 88 3e
       0.18822186 0.3989896 0.43833765 0.26620638

bn2.bias f4 [64]
000000 d9 3c 5b be 0c be 55 be f3 73 bc be 38 69 8f be
       -0.2140993 -0.20873278 -0.36807212 -0.28009963
000010 d4 56 8b be d5 ad a9 bd 21 f9 ab be 3f c7 d7 be
       -0.27214682 -0.08285109 -0.33588508 -0.421442
000020 47 67 1c be ce 75 7c be 96 63 e1 be 97 39 81 be
       -0.15273772 -0.24654314 -0.4402129 -0.2523925
000030 57 79 68 be 2b 37 0c be c2 f8 b9 bd fc 66 a6 be
       -0.22702537 -0.1369292 -0.0908065 -0.32500446
000040 da f6 8f be a4 0f 70 be 92 a8 e0 be d6 57 5d be
       -0.2811802 -0.23443466 -0.4387861 -0.21615538
000050 1f 76 f3 bc 8b c5 8f be cf a1 94 be 92 fc c9 be
       -0.02971941 -0.280804 -0.290297 -0.39450508
000060 1a 6c 8f be eb 00 a1 be 64 c2 2c be a0 42 f2 bd
       -0.28012162 -0.31446013 -0.16871029 -0.11829114
000070 4e 4d f6 bd 9a 34 a4 be 6a 71 11 bf 70 e0 a0 be
       -0.120264634 -0.32071382 -0.5681368 -0.31421232
000080 59 cb 98 be c8 f7 90 be 1e 2a 33 be 99 60 50 be
       -0.29842642 -0.28314042 -0.17496535 -0.20349349
000090 90 dd 82 be de f8 2b be f3 b3 e3 bd aa e8 74 be
       -0.25559664 -0.16794154 -0.11118307 -0.2391688
0000a0 d9 93 8c bd 55 76 9a be 9b 4a 06 be ab 27 cf be
       -0.06864137 -0.30168405 -0.13114397 -0.40459952
0000b0 ed 40 1c be cf 7e b8 be 1b d8 91 be a8 19 ae be
       -0.15259142 -0.36034247 -0.28485188 -0.3400395
0000c0 41 60 ef bd 53 ab 3f be 5a e5 d1 be 86 78 72 be
       -0.11688281 -0.18717699 -0.40995294 -0.23678789
0000d0 2f 37 85 be ae d7 96 be 56 af b0 be d5 19 67 be
       -0.26018664 -0.29461426 -0.3450877 -0.22568448
0000e0 dc 4d de bd 53 99 6d be 8f 12 a8 bc 67 aa 87 be
       -0.10854694 -0.2320302 -0.020516662 -0.26497194
0000f0 13 23 49 be e9 dd da be d0 97 ec be 0e 05 88 be
       -0.19642286 -0.4274743 -0.46209574 -0.26566356

bn2.running_mean f4 [64]
000000 be 13 5c bf b8 7f 1c bf a9 ea cf be 91 1a fe be
       -0.85967624 -0.61132383 -0.4060872 -0.49629644
000010 12 41 13 bf ac 58 0d bf 57 fe 6b be 57 a2 88 be
       -0.57521164 -0.5521343 -0.23046242 -0.26686355
000020 d1 92 3b 3e 5d 43 db be 9f 01 e5 be 25 e8 42 bf
       0.18317725 -0.42824832 -0.447278 -0.76135474
000030 b1 f0 78 bf e9 3e 3e bf 91 64 fe bc a3 2a f9 be
       -0.97242266 -0.74314743 -0.031053813 -0.48665342
000040 9a 6b 10 bf 28 02 fb be 6c c4 c9 be 96 a6 46 be
       -0.56414187 -0.49025083 -0.3940767 -0.19399485
000050 23 26 35 3f fe bf da bd cc 70 86 bf 58 f1 09 bf
       0.70761317 -0.10681151 -1.0503173 -0.53883886
000060 c1 75 0e bf ed d6 ca be ae 2a a4 be 78 bf ca be
       -0.5564843 -0.396171 -0.32063812 -0.39599204
000070 cc 11 ce 3e 36 a1 61 be c8 f8 ff be 8e 92 3d bf
       0.40247953 -0.22034153 -0.49994493 -0.7405175
000080 90 61 77 bf 14 ab 53 bf 47 fd 4c be db ae 33 bf
       -0.96633244 -0.8268292 -0.20018493 -0.70188683
000090 a6 1f 30 bf de cc 3e bf 7b d4 68 be f0 3d 12 bf
       -0.6879829 -0.7453135 -0.22737305 -0.5712576
0000a0 6a 14 29 be df 49 1b bf b6 90 b7 be 9e f6 9e be
       -0.16511694 -0.60659593 -0.35852593 -0.3104753
0000b0 78 13 f9 bd d6 e4 50 bf cb e0 34 bf 1f 34 86 bf
       -0.121619165 -0.81599176 -0.70655507 -1.0484656
0000c0 46 75 d8 be 10 23 5c be 00 71 0e bf 13 fe 42 bf
       -0.42276973 -0.2149775 -0.55641174 -0.76168936
0000d0 c7 1a 2c be c1 22 43 bf 27 96 07 bf 40 45 29 3d
       -0.1680709 -0.76224905 -0.5296349 0.041325808
0000e0 c3 2f cf be 39 09 0a bf cd 57 c8 3d 44 cf ca be
       -0.40466127 -0.5392032 0.09782372 -0.39611256
0000f0 f9 2c 38 bf 79 89 09 be c9 1c 24 bf ec 3f 80 bf
       -0.7194362 -0.13431348 -0.6410642 -1.0019507

bn2.running_var f4 [64]
000000 ac 93 50 3e 9f 2f 26 3e 61 54 3a 3e 2e 08 4a 3e
       0.20368832 0.16229104 0.1819625 0.19729683
000010 56 b3 41 3e e7 bb 95 3e 18 b2 7c 3e 3e 10 34 3f
       0.18916067 0.2924492 0.24677312 0.70337284
000020 2e f1 5b 3e 5f a5 82 3f 5b 43 32 3e a1 62 aa 3e
       0.21478721 1.0206717 0.17408507 0.33278373
000030 a5 db 07 3f 31 d8 93 3e cd 48 8e 3e 94 28 67 3e
       0.53069526 0.28875878 0.27789918 0.22574073
000040 b1 95 4b 3f 5b c4 ca 3d 7a 59 9b 3e cd 38 f2 3e
       0.79525286 0.09900733 0.30341703 0.4730896
000050 d5 6b 2a 3f ec 50 07 3e 44 11 e9 3e 6e ba a0 3e
       0.6657079 0.13214463 0.45520985 0.31392235
000060 9f 60 48 3e 2e d0 02 3e a0 63 d0 3d 09 1b 58 3e
       0.19568108 0.12774727 0.10175252 0.21104063
000070 97 2c a9 3d 37 6b dc 3e 4b 09 24 3e e4 33 c9 3e
       0.08260458 0.43050548 0.1601917 0.39297402
000080 0c bf c0 3e 3f 68 90 3e 2e 86 81 3e a9 a6 ba 3f
       0.37645757 0.28204533 0.25297683 1.4582111
000090 97 e1 84 3e ac 28 90 3e 7c 6c 56 3e bb 4c e4 3d
       0.2595336 0.2815603 0.20939821 0.11147448
0000a0 81 d9 ba 3e 39 7e 41 3e 2a 3c 02 3f b6 8e 40 3e
       0.36494067 0.18895806 0.50873053 0.1880444
0000b0 cd f1 ff 3d bf 0d 42 3f c6 82 4b 3f 5a 48 f5 3f
       0.12497292 0.75802225 0.7949642 1.9162705
0000c0 af c9 84 3e da f2 a6 3d e6 7b 8a 3e fe 7e c2 3e
       0.25935122 0.08151789 0.27047652 0.37987512
0000d0 c1 34 c1 3d ba f8 90 3e d7 ec 65 3e 2a 93 fa 3d
       0.0943389 0.28314763 0.22453628 0.122351006
0000e0 b8 93 02 3f 10 b2 ba 3d fb 64 a6 3d 16 1e e5 3d
       0.5100665 0.09115994 0.08124729 0.11187379
0000f0 07 84 90 3e 9d 67 3a 3e 2a 0a 90 3e 70 7b 05 3f
       0.2822573 0.18203588 0.28132755 0.52141476

fc3.weight f4 [1, 64]
000000 12 ad 98 be 1f 1b 7c be c0 81 08 bd e0 4c 09 3e
       -0.29819542 -0.24619721 -0.033326864 0.13408232
000010 f6 7c 86 3d 1d 75 76 3d d8 3a b1 3d 2a ac 20 bd
       0.06566803 0.06017028 0.08653802 -0.03922669
000020 eb 30 d7 bd 56 9b bc bd 65 20 a9 3e 7a d9 cb 3d
       -0.10507377 -0.092093155 0.33032528 0.0995359
000030 84 58 41 bf 08 a3 1c be ce 6c 5f bd f3 27 80 3c
       -0.7552569 -0.15296566 -0.054547124 0.01564405
000040 d6 c2 b3 3d ae 9e 81 3e 26 e7 82 3d c5 74 d5 bd
       0.087773964 0.25316375 0.06391744 -0.10422663
000050 8e 15 00 3e 8b 87 51 3d 46 a8 2a 3f 32 d9 57 3d
       0.12508222 0.051154654 0.66663015 0.052697368
000060 a1 a0 19 3e f9 50 0b 3d 6e 30 08 be 7c 31 d9 bd
       0.15002681 0.03401277 -0.13299724 -0.106051415
000070 88 ff 5c bd 56 cc ff 3c 20 15 95 3d 2b 8f 95 3d
       -0.05395463 0.031225365 0.0727942 0.07302698
000080 93 ed 0b bd d0 41 89 3d 6a 5b 14 3d ed 97 a8 3d
       -0.034162115 0.06702006 0.03621999 0.082321025
000090 81 74 83 3d 53 b8 08 3e e5 e9 91 bd 19 ca 2c bd
       0.06418706 0.13351564 -0.0712469 -0.042184923
0000a0 3a 03 93 bd 87 8c 4a bd 6b 3a cc bd fa 8b 52 be
       -0.0717835 -0.049450424 -0.0997208 -0.2056121
0000b0 66 e9 61 3d b6 b2 10 bd 06 59 33 3d 82 1c 74 3d
       0.055154227 -0.035326682 0.04378607 0.0595975
0000c0 44 a1 71 bd 50 a8 f2 bd b7 95 6b bd a6 16 ad 3d
       -0.058991686 -0.11848509 -0.057515826 0.084515855
0000d0 ba 99 06 bf 3a 03 ef bd 5c d3 46 bd a5 8a 04 bd
       -0.5257832 -0.11670537 -0.04854141 -0.032358784
0000e0 72 16 c6 bd 8e 1d 3c 3e 90 88 7d bb 31 0a c2 bc
       -0.0967225 0.18370649 -0.0038686134 -0.0236865
0000f0 34 85 df bd 84 5f 9f bd ed 62 6a bd b1 dc 32 3e
       -0.10914078 -0.0778189 -0.05722325 0.17467
