4. Multi-Agent Reinforcement Learning/p3_collab-compet/checkpoint_actor.pth (torch_old, 51747 bytes, 18 tensors)

fc1.weight f4 [128, 24]
0	0xbd8bb3bc	-0.06821391
1	0x3e129ba7	0.14317189
2	0x3db3dfbf	0.087829106
3	0x3db4f4f2	0.08835782
4	0x3d33ef7a	0.043929555
5	0xbd92a68f	-0.07160675
6	0x3dbdd6db	0.09269496
7	0x3cbb2b92	0.022847924
8	0xbde4a940	-0.111650944
9	0x3d20d8b5	0.039269168
10	0x3d9918fc	0.074754685
11	0xbd0a40d8	-0.033753246
12	0x3d4703a9	0.048587475
13	0xbd4faaab	-0.05069987
14	0xbd0075a7	-0.031362202
15	0x3cd4fd03	0.025999552
16	0xbd641cbc	-0.055691466
17	0x3db1af4e	0.08676015
18	0x3d9082b0	0.07056177
19	0xbc89b833	-0.016811466
20	0xbcb56eaa	-0.022147495
21	0x3dc90b60	0.09816623
22	0xbcac8665	-0.021060178
23	0xbd1ab0b0	-0.03776616
24	0xbbf09310	-0.00734175
25	0xbe280a7d	-0.16410251
26	0xbd90f92d	-0.070787765
27	0xbdc672e3	-0.09689882
28	0x3dc523ae	0.09625946
29	0x3d8a0739	0.06739659
30	0x3da4b081	0.08041478
31	0xbd999bcb	-0.07500418
32	0x3c3d40b8	0.011551075
33	0xbdc8448c	-0.09778699
34	0xb86ad73b	-5.5990397e-05
35	0x3d6cd508	0.05782035
36	0x3cfce445	0.030870566
37	0xbce85347	-0.028360022
38	0x3ae89f56	0.0017747681
39	0x3b901420	0.0043969303
40	0xbbda4829	-0.006661434
41	0xbd2400a1	-0.040039662
42	0x3c80f300	0.015740871
43	0x3cfbe6af	0.030749647
44	0xbc97c157	-0.018524809
45	0x3dae06ab	0.084973656
46	0xbc9c4a51	-0.019078406
47	0xbb33d078	-0.002743749
48	0x3c9d73e0	0.019220293
49	0x3d8eb810	0.06968701
50	0xbd0fe541	-0.035130743
51	0x3c6710f5	0.014103164
52	0x3d20de24	0.03927435
53	0xbdef2a6c	-0.11678013
54	0x3d13b039	0.03605673
55	0xbcc0dce8	-0.023542836
56	0x3cab53fe	0.020914074
57	0x3dcef3eb	0.101051174
58	0xbba11d4b	-0.004916822
59	0x3bc8a617	0.006123315
60	0xbd52708f	-0.051376875
61	0x38b8d69f	8.81378e-05
62	0x3bca2ce6	0.006169903
63	0x3d6e6d50	0.058209717
64	0x3c8b98a0	0.01704055
65	0x3d97cbb9	0.07411904
66	0xbd403bb1	-0.046931926
67	0x3d454216	0.048158728
68	0xbde68795	-0.11256329
69	0xbe0772a2	-0.13227323
70	0x3d561bc6	0.05227258
71	0xbdaca3b3	-0.08429661
72	0xbcfcd6a5	-0.03086407
73	0xbcb3065d	-0.02185362
74	0xbd2e9253	-0.042620014
75	0xbd1f7382	-0.038928516
76	0x3c5ccff5	0.013477315
77	0xbe3442ee	-0.17603657
78	0x3d2a955c	0.041646346
79	0x3d0459c1	0.03231216
80	0x3d7bb877	0.061455216
81	0x3dbebec8	0.093137324
82	0x3cf90e0a	0.030402202
83	0x3da193ec	0.07889542
84	0x3cf62abf	0.03004968
85	0xbd68fe7b	-0.056883316
86	0xbd14e42d	-0.036350418
87	0xbd67c15d	-0.05658089
88	0xbda42682	-0.08015157
89	0x3db4cec0	0.08828497
90	0x3d8e0114	0.069337994
91	0x3da0e387	0.078558974
92	0x3d8de8e5	0.06929187
93	0xbd40766b	-0.046987932
94	0xbd922f79	-0.07137961
95	0xbd55a637	-0.052160468
96	0x3e186967	0.14883958
97	0x3e16edb4	0.14739114
98	0x3ca2224c	0.019791745
99	0x3cee85bc	0.029116504
100	0xbccf3485	-0.025293598
101	0x3d209871	0.03920788
102	0x3c740148	0.014892884
103	0x3d540a26	0.05176749
104	0x3c664cfa	0.014056439
105	0x3dba67b4	0.09101811
106	0x3d550c25	0.052013535
107	0xbdf65129	-0.12027199
108	0x3debe23d	0.11517761
109	0x3dd49f20	0.10381913
110	0xbbb2b5ef	-0.005453817
111	0xbc9e9236	-0.019356828
112	0x3db9ca37	0.090717725
113	0x3cdc290d	0.026875043
114	0x3d164dbe	0.036695234
115	0x3c03561e	0.008016137
116	0x3d2a7711	0.041617457
117	0x3de59e70	0.1121186
118	0xbb1304f2	-0.0022433368
119	0xbd742ba8	-0.059611946
120	0x3d74ea62	0.059793837
121	0xbc818b6e	-0.015813556
122	0xbb9c7fb8	-0.0047759674
123	0xbc8f7bd7	-0.017515106
124	0x3d7497bc	0.059715018
125	0xbdc539b7	-0.09630149
126	0x3cea6567	0.028612806
127	0xbd7f06f2	-0.062262483
128	0x3c080f43	0.00830442
129	0xbd8ee7bf	-0.06977796
130	0xbd2bfadc	-0.041987285
131	0xbd036e24	-0.03208746
132	0x3dd574c7	0.10422664
133	0x3cd8fa86	0.026486646
134	0x3dac2ea6	0.08407335
135	0xbce00245	-0.027344832
136	0x3d86196a	0.06547816
137	0xbc11c89d	-0.008897928
138	0xbd288c8c	-0.04114966
139	0xbdc7cf30	-0.09756315
140	0x3dab36a3	0.083600305
141	0x3dae46c7	0.085095935
142	0x3d54921f	0.051897164
143	0xbb81c3c3	-0.003960104
144	0xbd349a1b	-0.04409228
145	0x3e579436	0.21052632
146	0x3cf2136e	0.02955028
147	0x3b863daf	0.0040967087
148	0xbc832d4b	-0.016012808
149	0x3d07746e	0.03307002
150	0xbcedc9d3	-0.029026901
151	0x3ca9a78b	0.020709774
152	0xbd09daff	-0.033656117
153	0x3d99600f	0.07489025
154	0xbc528582	-0.012849214
155	0x3d10b9cd	0.035333443
156	0xbcf65ef8	-0.030074582
157	0xbe08d342	-0.13361838
158	0x3c56f1d1	0.013119177
159	0x3d5863f1	0.052829687
160	0xbbfb3222	-0.0076658884
161	0x3da19e3f	0.07891511
162	0x3d712abf	0.058878656
163	0xbd05cfd8	-0.03266892
164	0x3d2ecb44	0.042674318
165	0xbe83f5a6	-0.25773352
166	0xbd855083	-0.06509497
167	0x3cb698bd	0.022289628
168	0xbd617954	-0.05504735
169	0x3c16e6dc	0.009210315
170	0xbcf5719d	-0.029961402
171	0xbcb82139	-0.02247678
172	0xbbfbbfdd	-0.007682784
173	0x3dc10277	0.09424298
174	0xbc64b67e	-0.013959525
175	0x3d44fc13	0.04809196
176	0xbdb00a97	-0.0859577
177	0xbdcb6069	-0.09930498
178	0x3c504f7b	0.012714262
179	0xbd9af6b2	-0.07566585
180	0xbe02a571	-0.12758423
181	0x3e2794cd	0.16365357
182	0x3c6d75fa	0.01449346
183	0x3d74a279	0.05972526
184	0x3c1c2587	0.009530432
185	0xbc64037c	-0.013916846
186	0x3d7be354	0.061496094
187	0xbd2f54f3	-0.042805623
188	0xbdd357b7	-0.10319465
189	0x3c331d41	0.010932268
190	0x3da57278	0.08078474
191	0x3b88e8e5	0.004178154
192	0x3d1efff0	0.0388183
193	0x3e27c501	0.16383745
194	0xbcc5a003	-0.024124151
195	0xbc1d8639	-0.009614521
196	0xbd1ab2b0	-0.037768066
197	0x3dd4b384	0.103858024
198	0x3c95d184	0.018288381
199	0xbe101eff	-0.14074324
200	0x3e081f9e	0.13293311
201	0x3d57ddc7	0.052701738
202	0x3d7081f1	0.05871767
203	0xbd8c8fa9	-0.068633385
204	0xbc9f1930	-0.01942119
205	0x3d567260	0.05235517
206	0xbd8d9fc1	-0.06915236
207	0xbd952502	-0.07282449
208	0xbd6c4ec8	-0.05769232
209	0x3dd191e7	0.10232907
210	0xbca8ac33	-0.020589923
211	0x3d913a25	0.07091168
212	0xbd91a400	-0.07111359
213	0x3dc20915	0.094743885
214	0x3c422c82	0.011851432
215	0xbc01267d	-0.0078827115
216	0x3bc59e39	0.0060308245
217	0x3d2ed1e3	0.042680632
218	0x3c9644a6	0.018343281
219	0xbd9512c3	-0.07278969
220	0xbdf52ff8	-0.1197204
221	0xbcaa9062	-0.0208208
222	0xbbd6174b	-0.0065335385
223	0xbcb1fb10	-0.021726161
224	0x3ca47532	0.020075414
225	0x3c5f0c76	0.013613811
226	0xbd7f4c20	-0.062328458
227	0x3d45ce7a	0.048292615
228	0x3cb0f39d	0.021600539
229	0x3dc1c061	0.094605215
230	0x3d49b1a6	0.049241684
231	0x3d0823b2	0.033237167
232	0xbdde813e	-0.10864495
233	0x3cf2b074	0.029625155
234	0x3d38c808	0.04511264
235	0x3d94217f	0.072329514
236	0x3d14ea24	0.036356106
237	0x3d8ae922	0.06782748
238	0xbd8c35c6	-0.06846194
239	0x3dda749b	0.10666772
240	0xbdaff10a	-0.085908964
241	0x3d412349	0.04715279
242	0x3c8e9cb0	0.017408699
243	0xbd7d4d37	-0.061841216
244	0x3d414814	0.04718788
245	0x3c5a2db8	0.013316564
246	0x3d8105c8	0.06299931
247	0xbc560ecb	-0.01306505
248	0xbdefb9c4	-0.11705354
249	0xbdcb3297	-0.099217586
250	0xbc2b0fc2	-0.010440769
251	0xbda63189	-0.08114917
252	0xbcb204c1	-0.021730782
253	0x3dbe8daa	0.09304364
254	0x3b27dcb0	0.0025613718
255	0xbd111498	-0.03542003

fc1.bias f4 [128]
0	0xbc8fd0ff	-0.017555712
1	0x3d932792	0.07185282
2	0xbe528a0e	-0.20560476
3	0xbdca53b3	-0.098792456
4	0xbd1b8b97	-0.03797492
5	0x3e3c5cad	0.18394728
6	0x3e2d9dc6	0.16954717
7	0xbd0d67dc	-0.034522876
8	0xbc8c0172	-0.017090533
9	0xbddfccc6	-0.10927729
10	0xbe0d5601	-0.13802339
11	0xbdbd445d	-0.09241555
12	0x3e660a44	0.22464854
13	0x3e35489a	0.17703477
14	0x3e262d34	0.16228181
15	0x3e4b0859	0.19827403
16	0x3e7d9215	0.24762757
17	0x3e309e76	0.17247948
18	0x3c17afc5	0.009258215
19	0xbd905f19	-0.070493884
20	0xbd67723f	-0.056505438
21	0xbe6fcf33	-0.23418884
22	0xbc72e6f1	-0.014825569
23	0x3e2dc12a	0.16968217
24	0xbe3c35c7	-0.1837989
25	0xbe1944f1	-0.14967705
26	0x3e3e3303	0.18574147
27	0x3df81d9d	0.12115023
28	0xbe8080aa	-0.25098163
29	0xbe71bf42	-0.23608115
30	0xbcec1910	-0.028820544
31	0xbda13d41	-0.078730114
32	0x3d6effd6	0.058349453
33	0xbddd546e	-0.10807119
34	0x3c66ecc4	0.014094535
35	0x3d8177f8	0.0632171
36	0x3db6684e	0.08906613
37	0xbdad1e1f	-0.08453011
38	0x3d0ea1f7	0.03482243
39	0xbd03f26b	-0.03221361
40	0x3d530e16	0.051527105
41	0xbcce2028	-0.025161818
42	0x3e28682c	0.16445988
43	0xbc2fd534	-0.010731984
44	0x3e479f77	0.19494425
45	0xbd57cb1c	-0.052683935
46	0x3cdb5b5d	0.026776964
47	0xbe62189d	-0.22079702
48	0xbd9ff386	-0.0781012
49	0xbcb47d2c	-0.022032343
50	0xbd19ede5	-0.03758039
51	0xba0d3d16	-0.00053878257
52	0x3d38fea3	0.045164715
53	0x3c283682	0.010266902
54	0x3ddc6547	0.107615046
55	0xbe30e53d	-0.17274947
56	0x3c7d60c9	0.01546497
57	0x3df0ea5a	0.11763449
58	0x3e4a7ce0	0.19774199
59	0xbb18291e	-0.0023217867
60	0xbdbed822	-0.09318568
61	0x3d82491d	0.063616015
62	0x3e61c74a	0.22048679
63	0xbe1fea3b	-0.15616696
64	0xbe2f53be	-0.17121789
65	0xbde85a31	-0.11345328
66	0xbe824349	-0.2544196
67	0xbad94f2a	-0.0016579379
68	0xbdc87414	-0.09787765
69	0x3dfe1966	0.12407188
70	0xbd9640e5	-0.073365964
71	0xbd93ece3	-0.07222917
72	0x3e1897a4	0.14901596
73	0xbe788f0a	-0.24273315
74	0xbca06bf0	-0.019582719
75	0x3e2bc68f	0.16774963
76	0x3e34b777	0.17648111
77	0xbdf061be	-0.11737393
78	0x3d9358d8	0.0719468
79	0x3d7c38fe	0.06157779
80	0x3dcaa546	0.09894805
81	0x3ca3f257	0.020013018
82	0xbe0604af	-0.13087724
83	0x3d2d9a3c	0.042383417
84	0x3d89c211	0.06726468
85	0x3e1d6a2b	0.15372531
86	0xbd23eab7	-0.040018763
87	0xbe3cdd68	-0.18443835
88	0x3e3e035f	0.18555973
89	0xbddcc289	-0.10779292
90	0xbe0112e6	-0.12604865
91	0xbc67fab0	-0.01415889
92	0xbd9d2bde	-0.076743826
93	0xbe1d68dc	-0.15372032
94	0xbdc2a0c1	-0.095033176
95	0x3d518ebf	0.051161524
96	0x3ddc2c3f	0.10750627
97	0x3dc221a8	0.09479076
98	0xbe6700ab	-0.22558849
99	0xbdc08613	-0.09400573
100	0xbdf726d4	-0.12067953
101	0xbe08e17a	-0.13367262
102	0xbd8b5669	-0.06803591
103	0xbe3826aa	-0.17983499
104	0xbcf03cad	-0.029325807
105	0x3d8c5025	0.06851224
106	0xbe59c8aa	-0.21267954
107	0xbe1262d8	-0.14295518
108	0xbdf08591	-0.11744226
109	0x3da5da59	0.08098287
110	0x3ccf227c	0.025284998
111	0x3e061aed	0.13096209
112	0x3e2f759e	0.17134711
113	0x3d8d2173	0.068911456
114	0x3e52c014	0.20581084
115	0xbd80ea94	-0.06294742
116	0x3e605695	0.21908028
117	0xbe91606e	-0.28393883
118	0xbd9f848d	-0.07788954
119	0x3c0642ba	0.00819462
120	0x3cca3f3a	0.024688352
121	0xbc966a2d	-0.018361175
122	0x3e05fd9f	0.1308503
123	0x3d436ab4	0.047709182
124	0xbdd662cc	-0.10468063
125	0xbd45b0e4	-0.0482644
126	0xbd58803b	-0.052856665
127	0xbc18f946	-0.009336775

bn1.weight f4 [128]
0	0x3f23954c	0.63899684
1	0x3e2663fb	0.16249077
2	0x3f484b05	0.7823947
3	0x3f753c50	0.95795155
4	0x3ec756ce	0.38933414
5	0x3f3244ce	0.6963624
6	0x3f1d13ec	0.61358523
7	0x3f5fa513	0.8736126
8	0x3f006ec9	0.50169045
9	0x3f506b95	0.8141416
10	0x3ead5fe6	0.33862227
11	0x3e1204f5	0.14259703
12	0x3e8f1c48	0.27951264
13	0x3f4fcc5d	0.8117121
14	0x3f0f6b36	0.56022966
15	0x3ecf36db	0.4047154
16	0x3f5b1037	0.85571617
17	0x3e44b95a	0.19211331
18	0x3e889e18	0.26683116
19	0x3f3eea80	0.7457657
20	0x3f6b00c9	0.91798073
21	0x3f2b73e6	0.6697372
22	0x3efa9eb8	0.48949218
23	0x3f1ae53b	0.6050603
24	0x3f257220	0.64627266
25	0x3e26a692	0.16274479
26	0x3f4d3236	0.8015474
27	0x3f125909	0.57167107
28	0x3ec31d7b	0.3810843
29	0x3db27448	0.08713585
30	0x3f17c013	0.59277457
31	0x3eeecc7d	0.46640387
32	0x3f1f7f4f	0.6230363
33	0x3e5c2d5b	0.21501677
34	0x3f26e18c	0.6518791
35	0x3eb3f799	0.3514984
36	0x3f6b050b	0.9180457
37	0x3f1a0b18	0.6017318
38	0x3f094b68	0.53630686
39	0x3f234f98	0.63793325
40	0x3f5b2281	0.85599524
41	0x3f15caf3	0.585128
42	0x3f572dea	0.84054434
43	0x3dea18e1	0.114305265
44	0x3f5c03e4	0.85943437
45	0x3f6784e3	0.90437144
46	0x3eb0e622	0.34550577
47	0x3e9ad14f	0.30237815
48	0x3f3b614d	0.73195344
49	0x3f617cd9	0.8808113
50	0x3e255241	0.16144659
51	0x3f0d4e26	0.5519737
52	0x3e16c266	0.14722595
53	0x3f2e3fe5	0.68066245
54	0x3e170d2d	0.1475112
55	0x3e90c68f	0.28276488
56	0x3f76ba86	0.9637836
57	0x3f6a504a	0.9152876
58	0x3f429e47	0.7602276
59	0x3f12074b	0.5704238
60	0x3dac4053	0.08410706
61	0x3f4dedd5	0.8044103
62	0x3f50dbc9	0.81585366
63	0x3f47694e	0.7789506
64	0x3f344441	0.7041665
65	0x3ef0fbff	0.47067258
66	0x3f54230f	0.82865995
67	0x3f2f8b0b	0.6857154
68	0x3e882a3f	0.2659473
69	0x3f3989da	0.7247597
70	0x3ed7ceeb	0.42150053
71	0x3f4e53de	0.8059672
72	0x3eee7457	0.46573135
73	0x3ed792df	0.4210424
74	0x3f23f1d2	0.64040864
75	0x3ed9823b	0.4248217
76	0x3f352e55	0.7077382
77	0x3e49c4e4	0.19704014
78	0x3d7d794b	0.061883252
79	0x3f1ed69b	0.6204621
80	0x3ede22c5	0.43385902
81	0x3e6df7dc	0.23239082
82	0x3e57c823	0.2107244
83	0x3efa347c	0.48868167
84	0x3e9282bb	0.28615364
85	0x3f5c5762	0.86070836
86	0x3e18f4f4	0.14937192
87	0x3ea7653b	0.3269442
88	0x3eee3346	0.46523494
89	0x3f09fc37	0.53900474
90	0x3e287163	0.16449504
91	0x3f43e323	0.7651846
92	0x3d9ae651	0.075634606
93	0x3e98b3c2	0.29824644
94	0x3f1e43d3	0.6182224
95	0x3ec72c0c	0.38900793
96	0x3f0952c5	0.5364192
97	0x3de7917a	0.11307044
98	0x3e81e64d	0.25371018
99	0x3f33bb2f	0.70207494
100	0x3f4796df	0.77964586
101	0x3f380a70	0.71890926
102	0x3f2c350e	0.67268455
103	0x3f5a84c8	0.8535886
104	0x3f2daa99	0.67838436
105	0x3ec77767	0.38958284
106	0x3ee185bd	0.44047347
107	0x3e495a14	0.19663268
108	0x3f2156fd	0.6302336
109	0x3efd326c	0.4945253
110	0x3ecee6de	0.40410513
111	0x3f3862e9	0.72025925
112	0x3efe7a1b	0.49702534
113	0x3f04c91b	0.5186936
114	0x3ed86e61	0.42271712
115	0x3e2e8067	0.17041169
116	0x3f69cc37	0.9132723
117	0x3e5d5a5f	0.21616505
118	0x3e58a6a6	0.21157321
119	0x3f1de77e	0.61681354
120	0x3eaf2728	0.3420956
121	0x3f4d828a	0.8027731
122	0x3ef5349e	0.47891706
123	0x3ebb4cbf	0.3658199
124	0x3ee2665d	0.44218722
125	0x3f009a95	0.50235873
126	0x3efc030f	0.49221084
127	0x3ed9791f	0.4247522

bn1.bias f4 [128]
0	0x3b9ee104	0.0048486013
1	0xbdb6120b	-0.0889016
2	0xbd358325	-0.044314522
3	0xbd9e0345	-0.07715467
4	0x3dbd5400	0.09244537
5	0x3d9a3afc	0.075307816
6	0x3ce738f5	0.028225401
7	0x3d891fe5	0.066955365
8	0xbdbbac54	-0.09163728
9	0x3d873d88	0.06603533
10	0xbd219f69	-0.039458666
11	0xbd529a11	-0.05141646
12	0xbcc3e069	-0.023910718
13	0xbd77ea06	-0.060525917
14	0x3dd3f8fa	0.10350223
15	0xbb77748c	-0.0037758676
16	0xbde0a036	-0.10968058
17	0x3d9c4214	0.07629791
18	0xbdd6d261	-0.10489345
19	0x3d708b92	0.058726855
20	0xbd03c4a7	-0.032169964
21	0xbc9750a6	-0.018471073
22	0x3cb42e3a	0.021994699
23	0xbde9e0f2	-0.11419858
24	0x3d111eb2	0.035429664
25	0x3c846576	0.016161662
26	0xbdf29f14	-0.11846748
27	0x3dd71e1b	0.10503789
28	0x3d4f4f81	0.05061293
29	0x3e2448b0	0.16043353
30	0x3d8a266a	0.06745608
31	0x3dc0a54a	0.094065264
32	0x3db10bae	0.08644806
33	0xbd91eaa5	-0.07124833
34	0x3d0ac901	0.0338831
35	0x3d1f881d	0.038948167
36	0xbd005dfd	-0.031339634
37	0x3e151ad3	0.14561014
38	0xbc0fe136	-0.008781722
39	0x3d46389f	0.04839384
40	0xb9962511	-0.00028637846
41	0x3d42cce0	0.047558665
42	0x3b49b879	0.003078012
43	0xbe1a097c	-0.1504268
44	0xbdc17152	-0.09445442
45	0x3cd7e0d3	0.026352322
46	0x3d1d8383	0.038455497
47	0x3cb43a17	0.022000356
48	0xbcf43efd	-0.029815191
49	0xbd882037	-0.066467695
50	0xbd5ee504	-0.054417625
51	0x3d42902c	0.047500774
52	0xbd8b9c3e	-0.0681691
53	0x3df2bc8d	0.118523695
54	0x3ca2c26b	0.019868096
55	0x3bc4be36	0.00600412
56	0x3c783348	0.015148945
57	0x3d80d7a4	0.0629113
58	0x3d830239	0.06396908
59	0x3cac9e93	0.021071708
60	0xbdbaf4e9	-0.09128744
61	0xbd179923	-0.037011277
62	0xbd475e2c	-0.048673794
63	0x3c84320f	0.016137151
64	0xbd68d94c	-0.056847855
65	0xbd1282ce	-0.035769276
66	0xbd1b955f	-0.03798425
67	0xbcbc41c7	-0.022980584
68	0xbdd7ad6a	-0.10531123
69	0x3dd449f9	0.10365672
70	0x3e288aaa	0.16459146
71	0x3c1edfd6	0.009696921
72	0x3ccb6c17	0.024831815
73	0xbce6d009	-0.02817537
74	0xbd210cac	-0.039318725
75	0xbceaa85e	-0.028644737
76	0xbde8d1b0	-0.1136812
77	0xbd306fcc	-0.043075368
78	0xbe3a9056	-0.18219122
79	0x3b78457f	0.003788322
80	0xbc055635	-0.008138229
81	0x3d3cb162	0.046067603
82	0xbd811b78	-0.063040674
83	0xbd0c49fb	-0.03425024
84	0xbd99be05	-0.075069465
85	0x38c01e0e	9.1608716e-05
86	0xbcffc7a4	-0.031223126
87	0xbd0f8753	-0.035041165
88	0xbd49c6a5	-0.049261708
89	0x3cd53d14	0.0260301
90	0xbd332d91	-0.043744627
91	0x3d9c9bb3	0.07646885
92	0xbe0f9ddf	-0.14025067
93	0xbcbbd5f2	-0.022929166
94	0xbd603dee	-0.05474656
95	0xbd82fceb	-0.063958965
96	0x3d36d457	0.044636097
97	0xbd940259	-0.0722701
98	0x3cf00718	0.029300258
99	0x3caa127d	0.020760769
100	0x3db2e2ab	0.0873464
101	0xbd11d9ab	-0.035607975
102	0xbca8bf77	-0.02059911
103	0x3e135ca6	0.14390811
104	0xbd563dbc	-0.05230497
105	0xbd8381ae	-0.06421219
106	0x3d4f1ac3	0.05056263
107	0x3c977cb2	0.018492077
108	0x3d8fcc18	0.0702135
109	0xbdc5b3a1	-0.09653402
110	0x3dcd05eb	0.100108944
111	0x3d336755	0.043799717
112	0x3dfad6dc	0.122480124
113	0x3c19ed68	0.009394981
114	0xbb90a323	-0.0044139787
115	0xbbba32d0	-0.005682327
116	0x3c34beb2	0.011031793
117	0xbc666a37	-0.0140634095
118	0xbc539261	-0.012913317
119	0x3ce5895b	0.028019598
120	0xbbfb2ad3	-0.007665017
121	0xbc292385	-0.01032341
122	0xbdea9795	-0.11454693
123	0x3db24b1f	0.087057345
124	0xbd4d9d2b	-0.050198715
125	0x3d66e9d5	0.056375343
126	0x3c3214eb	0.010869245
127	0xbad763b2	-0.001643291

bn1.running_mean f4 [128]
0	0x403ce5fc	2.9515371
1	0x3f473291	0.77811533
2	0x3cc2f111	0.02379659
3	0x3dc2afc5	0.09506182
4	0x3f5b63e7	0.85699314
5	0x3f44c534	0.7686341
6	0x3de62ac9	0.11238629
7	0x4032d6d9	2.7943633
8	0x3ee74876	0.4517247
9	0x3f6a0a75	0.91422206
10	0x4019a394	2.400609
11	0x3e677dcd	0.22606583
12	0x3f881510	1.0631428
13	0x3f8c60fc	1.0967097
14	0x3f1f5aef	0.6224813
15	0x3f1110eb	0.5666644
16	0x3f01ef63	0.507559
17	0x3fcdb95f	1.6072196
18	0x3fc36a21	1.5266763
19	0x3e5ec38e	0.21754286
20	0x3f39e334	0.7261231
21	0x3f861e5b	1.0478014
22	0x3c34ac4d	0.011027408
23	0x400e06e5	2.2191708
24	0x3f57f38c	0.84356
25	0x3e2ece80	0.17070961
26	0x3f81a54d	1.0128571
27	0x3ee8c75f	0.45464608
28	0x3e0ee70a	0.13955322
29	0x40088e1d	2.133674
30	0x3f3710fa	0.7151028
31	0x3f0917d0	0.5355196
32	0x3e85d0ca	0.26135856
33	0x3f6f746c	0.9353702
34	0x3f8cea4e	1.1009004
35	0x3df78300	0.12085533
36	0x3f716e3a	0.9430882
37	0x3ebd851c	0.37015617
38	0x3f959c1e	1.1688268
39	0x3fae7ede	1.3632467
40	0x3ec118cf	0.3771424
41	0x3f1cf7d9	0.61315686
42	0x3fca5aa3	1.580891
43	0x3fe5ace2	1.7943385
44	0x3eacec05	0.3377382
45	0x3f190c89	0.5978475
46	0x3d8c7999	0.068591304
47	0x3e7f8bf9	0.24955739
48	0x40029817	2.0405328
49	0x3f4379c8	0.763577
50	0x3f3043c7	0.6885342
51	0x3df66284	0.12030509
52	0x3ed7a3de	0.42117208
53	0x3fe0fe52	1.7577612
54	0x3efb470a	0.49077636
55	0x3dc57662	0.0964172
56	0x3e77e8d6	0.24209914
57	0x3fe7f094	1.8120294
58	0x3fd32ab6	1.6497409
59	0x3f22a8dc	0.6353891
60	0x3fbf7649	1.4957973
61	0x3f8cd7ac	1.1003318
62	0x3fcc0864	1.5940061
63	0x3f23c214	0.63968015
64	0x402d4eda	2.7079377
65	0x3f9dbf81	1.2324067
66	0x3db2902b	0.08718904
67	0x3ef4faa0	0.47847462
68	0x400d2f7f	2.206024
69	0x3eef9a46	0.4679739
70	0x3f2ede90	0.68308353
71	0x3f138848	0.57629824
72	0x3f9e4379	1.2364341
73	0x3f01e94d	0.50746614
74	0x3fd382fb	1.6524347
75	0x3f200718	0.62510824
76	0x3f681b9c	0.9066713
77	0x3e74f2d1	0.23920752
78	0x3ef7082b	0.4824842
79	0x3ee9112f	0.45520923
80	0x3f234580	0.63777924
81	0x4022e597	2.545263
82	0x3dbc4f3c	0.091948
83	0x40504e93	3.2547958
84	0x3f1480dd	0.5800913
85	0x3f7ee78a	0.9957205
86	0x3f83b4f5	1.0289599
87	0x3f9f8228	1.2461596
88	0x3eddf4f1	0.43350938
89	0x3f9fa6c5	1.2472769
90	0x3e03dbc4	0.12876803
91	0x3fa5f0e8	1.2964144
92	0x3ed64612	0.41850334
93	0x3fab7d6d	1.3397652
94	0x3f454010	0.77050877
95	0x40245edf	2.5682905
96	0x401a7451	2.4133494
97	0x3da221d3	0.07916608
98	0x3f4fffd7	0.81249756
99	0x3f9b3a6a	1.2127202
100	0x3f20ae51	0.62765986
101	0x3f09b409	0.53790337
102	0x3ff56aab	1.9173177
103	0x3f455c77	0.77094215
104	0x3fb1c81f	1.3889197
105	0x3e0fd1ee	0.14044926
106	0x3db9cf3b	0.09072729
107	0x3e8c754e	0.27433246
108	0x3e201fb1	0.1563709
109	0x3fb54483	1.4161533
110	0x3edb9f27	0.4289486
111	0x3fc0e68c	1.5070357
112	0x3f2e889e	0.6817721
113	0x3ec32a58	0.38118243
114	0x3e141282	0.14460185
115	0x3f9efc78	1.2420797
116	0x3f9318fa	1.1491997
117	0x3cdde648	0.027087346
118	0x3d4896a1	0.048971776
119	0x3edcc2a3	0.43117246
120	0x3f55b150	0.8347368
121	0x3f00da14	0.5033276
122	0x3e358b2a	0.17728868
123	0x3ee5101a	0.44738847
124	0x3fd82815	1.6887232
125	0x3f3ef76a	0.74596274
126	0x3c85e568	0.016344741
127	0x3f47974c	0.77965236

bn1.running_var f4 [128]
0	0x40f98fcd	7.798804
1	0x3f016e4b	0.5055892
2	0x3c6beb38	0.014399342
3	0x3d82d4bb	0.06388231
4	0x400de82a	2.2172952
5	0x3fb27589	1.3942119
6	0x3da61fa7	0.08111506
7	0x40bdd173	5.9318175
8	0x3eed7f19	0.4638603
9	0x3f55be49	0.8349348
10	0x405cc599	3.4495604
11	0x3e8766d5	0.26445642
12	0x400e0581	2.219086
13	0x3fd80bc0	1.6878586
14	0x3f451ec7	0.7700009
15	0x3f40d20e	0.7532052
16	0x3e9c6e6f	0.30553004
17	0x401334a1	2.3000872
18	0x4026af4e	2.6044497
19	0x3dd61dfc	0.10454938
20	0x3f3578d0	0.7088747
21	0x3f860818	1.047122
22	0x3c006bb4	0.007838178
23	0x406e7089	3.7256186
24	0x3f5220f3	0.82081527
25	0x3e53df9e	0.20690772
26	0x3fabf3a8	1.3433733
27	0x3f02abf4	0.5104363
28	0x3d8766d4	0.0661141
29	0x3f9daca2	1.2318308
30	0x3f687fe4	0.90820146
31	0x3f3a6952	0.72816956
32	0x3e145d5b	0.14488737
33	0x3f004c12	0.50116074
34	0x3fca25e4	1.5792813
35	0x3de62451	0.112373956
36	0x3f491712	0.7855083
37	0x3e98eea8	0.2986958
38	0x404efde4	3.2342463
39	0x402a8c84	2.6648264
40	0x3ee052b7	0.43813106
41	0x3f799e71	0.9750739
42	0x3fb7c73e	1.4357679
43	0x40340ec8	2.8134022
44	0x3e90d170	0.28284788
45	0x3ee56be6	0.44808882
46	0x3d298958	0.041390747
47	0x3e94de79	0.29075983
48	0x4011c256	2.2774863
49	0x3e3125fc	0.17299646
50	0x3f7ea4f8	0.9947047
51	0x3d619ef4	0.05508323
52	0x3f11f808	0.5701909
53	0x4031749f	2.772743
54	0x3f194df2	0.5988456
55	0x3d9b7f6d	0.07592664
56	0x3e5d8520	0.21632814
57	0x3fb1adec	1.3881202
58	0x405c42b0	3.4415703
59	0x3fa29192	1.2700675
60	0x4022f04a	2.545916
61	0x3f27526f	0.6536016
62	0x406b2bd0	3.674549
63	0x3f800da9	1.0004169
64	0x4088fd56	4.280925
65	0x3fd6fe1c	1.6796298
66	0x3daa3130	0.08310163
67	0x3f1c2e57	0.6100821
68	0x403f9f51	2.994099
69	0x3f37e587	0.71834606
70	0x3eb8807b	0.36035523
71	0x3edd018e	0.4316525
72	0x3f05f46c	0.52326083
73	0x3f7a5247	0.97781795
74	0x4055ae5a	3.3387666
75	0x3fa5dcc9	1.2958003
76	0x3ec810b6	0.3907525
77	0x3e4c2476	0.19935784
78	0x3f646f7c	0.8923261
79	0x3e3fe2df	0.18738888
80	0x3e65c03a	0.2243661
81	0x404a14f7	3.1575296
82	0x3d970cd9	0.07375497
83	0x409fa2ef	4.9886394
84	0x3f64be98	0.89353323
85	0x3f923adf	1.1424216
86	0x3f9b2038	1.2119207
87	0x4040bc52	3.0114942
88	0x3e9ed207	0.31019613
89	0x3fda6208	1.7061167
90	0x3db2ebfe	0.08736418
91	0x3f8abf6b	1.0839666
92	0x3ecd9ca8	0.40158582
93	0x4006728c	2.1007414
94	0x3f5ef5a9	0.870936
95	0x40402b5e	3.002647
96	0x40dd6181	6.9181523
97	0x3da22ed4	0.07919088
98	0x3f3c7101	0.7360993
99	0x404680b2	3.101605
100	0x3f2639d6	0.64932
101	0x3f1a3862	0.60242283
102	0x409b55fa	4.854245
103	0x3f98e764	1.1945615
104	0x3ff4201c	1.9072299
105	0x3df49bd9	0.11943788
106	0x3d58da0d	0.052942324
107	0x3ef6b65f	0.48186013
108	0x3e3f9ec9	0.18712915
109	0x3fdea32d	1.7393547
110	0x3f086b06	0.53288305
111	0x40268b38	2.6022472
112	0x3fc31425	1.5240523
113	0x3ec83202	0.39100653
114	0x3e0ad48c	0.13557643
115	0x405ec961	3.4810412
116	0x3f6bae43	0.9206278
117	0x3c39e9fd	0.011347291
118	0x3d002b2b	0.03129117
119	0x3ea4ee72	0.3221317
120	0x3fa18bb1	1.2620755
121	0x3e9d7dfb	0.30760178
122	0x3e1af7dd	0.15133615
123	0x3f141066	0.5783752
124	0x40940b49	4.6263776
125	0x3f35237c	0.7075727
126	0x3c0ed50c	0.0087177865
127	0x3f433f2a	0.76268256

fc2.weight f4 [64, 128]
0	0x3c522908	0.012827165
1	0x3dc1d199	0.09463806
2	0x3d71c38d	0.059024382
3	0x3daf0f6c	0.08547863
4	0xbb7d5d6b	-0.0038660418
5	0xbd5d290e	-0.05399423
6	0xbd84c7e0	-0.06483436
7	0x3d91c1c9	0.0711704
8	0x3da9011b	0.08252164
9	0xbd69f8a3	-0.057121884
10	0xbe065ccd	-0.13121338
11	0x3dcd191b	0.10014554
12	0xbd17e7b4	-0.037086204
13	0x3b16986b	0.0022979032
14	0xbe3c5e57	-0.18395363
15	0x3e065d0b	0.1312143
16	0xbcef1339	-0.02918397
17	0x3c7b2782	0.015329244
18	0xbbe98740	-0.0071267188
19	0x3dc30aa6	0.095235154
20	0xbdbebe82	-0.0931368
21	0x3d81e2c6	0.06342082
22	0x3db6f9d5	0.089343704
23	0x3d51d77b	0.05123089
24	0xbde50e75	-0.11184398
25	0xbd796b29	-0.06089321
26	0x3bb22bd7	0.005437355
27	0xbd46df7b	-0.04855297
28	0xbda96abe	-0.082723126
29	0xbba464df	-0.0050169076
30	0xbd87675f	-0.06611513
31	0xbd1c31e9	-0.038133536
32	0x3d54b270	0.051927984
33	0x3d730da4	0.05933918
34	0xbd3e9738	-0.046530932
35	0x3e42d5e5	0.19026907
36	0xbe160327	-0.1464964
37	0xbd17f487	-0.037098434
38	0x3c9e049a	0.019289304
39	0xba1d4474	-0.0005999275
40	0x3d38b402	0.045093544
41	0x3c850297	0.016236586
42	0x3d30aa1e	0.043130986
43	0xbdca8e1c	-0.098903865
44	0xbd3b72ef	-0.045763906
45	0x3bcaad87	0.006185237
46	0xbdb8774d	-0.0900713
47	0x3be7b3df	0.007071003
48	0xbc0ef29f	-0.008724838
49	0xbe3f60c8	-0.18689263
50	0x3cd08fb4	0.025459148
51	0xbdb5c43c	-0.08875319
52	0x3d8ab05f	0.06771921
53	0x3d7246f7	0.05914971
54	0xbe05c2df	-0.13062619
55	0xbd825808	-0.06364447
56	0x3cfc122d	0.030770386
57	0x3caff0a7	0.021477057
58	0xbd9f2207	-0.07770162
59	0x3c8797fb	0.016551962
60	0x3df9b07a	0.12191863
61	0xbe063757	-0.13107048
62	0x3be71350	0.007051863
63	0x3cbbb1bc	0.022911899
64	0xbd938af7	-0.0720424
65	0x3d51b3df	0.05119693
66	0xbb85fa42	-0.004088671
67	0x3e4d3af6	0.20042023
68	0xbcf2de48	-0.029647008
69	0x3d09cabe	0.033640616
70	0xbde25dbb	-0.11053034
71	0xbd9a5537	-0.07535785
72	0xbe1de928	-0.15420973
73	0xbd66c9ef	-0.056344923
74	0x3d27381b	0.04082499
75	0x3de67816	0.11253373
76	0x3c89b98f	0.016812114
77	0xbc3a42fe	-0.011368511
78	0x3d79ff74	0.061034635
79	0xbd95dfec	-0.073181
80	0x3d98d9be	0.07463406
81	0xbd68b96a	-0.05681745
82	0x3d92d1f7	0.07168954
83	0x3cf40d36	0.029791456
84	0xbd761942	-0.06008268
85	0x3cba385f	0.022731958
86	0x3d535fd5	0.051605064
87	0xbb089e16	-0.002084618
88	0x3d80f019	0.06295795
89	0x3ca8ab86	0.020589601
90	0xbb3c0f3a	-0.00286956
91	0x3bcc40e4	0.0062333215
92	0x3e11d82b	0.14242618
93	0x3dac3281	0.0840807
94	0x3df5d4d5	0.12003485
95	0xbdc21c85	-0.09478096
96	0x3d7d9d2a	0.06191746
97	0x3dc15388	0.094397604
98	0xbdca0cb6	-0.09865706
99	0x3d8c8dbd	0.06862972
100	0x3ca5bdb9	0.020232068
101	0xbd3e793e	-0.046502344
102	0x3de571e2	0.11203362
103	0x3d11f6d2	0.035635777
104	0xbd93563a	-0.07194181
105	0xbd10c6e0	-0.035345912
106	0x3e0a6087	0.13513385
107	0x3db454ae	0.08805214
108	0x3d65c17a	0.056092717
109	0xbdf8b5b5	-0.12144033
110	0xbd3f5103	-0.04670812
111	0xbdcc38ff	-0.09971809
112	0xbd921264	-0.07132414
113	0x3d2f0f0d	0.042738963
114	0xbe2bfbd8	-0.1679529
115	0xbd8cc525	-0.0687354
116	0xbd8df68b	-0.0693179
117	0xb929f625	-0.00016208792
118	0x3e1b56d4	0.15169841
119	0x3d739ff9	0.059478734
120	0xbd908cc3	-0.07058098
121	0xbd81ee96	-0.06344335
122	0x3cc27a11	0.023739846
123	0xbdff319c	-0.12460634
124	0xbd0b6f78	-0.03404185
125	0xbe0698cb	-0.13144223
126	0x3cbb307f	0.022850273
127	0xbdca34c5	-0.09873346
128	0x3cfeb95f	0.031094251
129	0xbd3bd95f	-0.045861598
130	0x3d8d9776	0.069136545
131	0x3d38bc29	0.04510132
132	0x3dccd633	0.10001793
133	0xbe033aa6	-0.12815341
134	0x3dc37abe	0.095448956
135	0xbc2e7725	-0.010648523
136	0xbdc64667	-0.09681397
137	0xbc652029	-0.013984718
138	0x3da2da16	0.07951753
139	0xbda6867d	-0.0813112
140	0xbc9038b0	-0.017605156
141	0x3d64230b	0.055697482
142	0x3cf96440	0.03044331
143	0xbd8b4d23	-0.06801822
144	0x3d5917fb	0.053001385
145	0xbda01a77	-0.07817548
146	0xbe1aae8a	-0.15105644
147	0x3c97721f	0.018487034
148	0xbd7aac00	-0.06119919
149	0xbd270162	-0.040772803
150	0x3db38778	0.08766073
151	0xbd279726	-0.04091563
152	0x3d02722c	0.031847164
153	0x3dc92d15	0.09823052
154	0x3c9f14f3	0.019419169
155	0xbe08234d	-0.13294716
156	0x3c944f7f	0.018104313
157	0xbdb80f30	-0.08987272
158	0x3c202502	0.009774448
159	0x3d7f6ff8	0.06236264
160	0xbd998a27	-0.074970536
161	0x3d2312d0	0.039812863
162	0xbcf9376e	-0.030421939
163	0x3e079b52	0.13242844
164	0xbe15f7d9	-0.14645328
165	0xbb440a18	-0.0029913243
166	0xbd7c9ee2	-0.06167496
167	0x3c13a142	0.009010615
168	0x3d10b9e4	0.03533353
169	0x3d166631	0.03671855
170	0x3da3d0eb	0.07998832
171	0xbda9aba6	-0.082846925
172	0x3c6ccf1f	0.014453678
173	0x3ddb60ec	0.10711846
174	0xbd99dc88	-0.07512766
175	0xbdd1c061	-0.102417715
176	0x3be891f9	0.0070974794
177	0xbdb8dc1b	-0.09026357
178	0x3d0a823c	0.033815607
179	0x3ce71044	0.028205998
180	0xbd5b7afc	-0.053584084
181	0xbd596a89	-0.053080115
182	0xbdadc37f	-0.084845535
183	0x3c3580f1	0.011078105
184	0x3d8c4d56	0.06850688
185	0xbdfa53be	-0.12223004
186	0xbd3092d6	-0.043108784
187	0xbdda8224	-0.106693536
188	0xbdd4a2ea	-0.10382636
189	0xbd249da1	-0.04018939
190	0x3cea94c7	0.028635396
191	0x3cd418ad	0.025890673
192	0xbd5baa09	-0.053628955
193	0xbd8766f3	-0.06611433
194	0x3d1fcdd9	0.03901467
195	0x3c6f36cb	0.014600466
196	0x3dbf6d51	0.09347022
197	0x3b7c5163	0.0038500659
198	0xbd864b69	-0.06557352
199	0xbe1a7a81	-0.15085794
200	0x3d90e022	0.07074
201	0x3d57e583	0.052709114
202	0x3d0fe8ed	0.035134245
203	0xbd3d83f3	-0.046268415
204	0xbd51af8d	-0.05119281
205	0x3cf30911	0.02966741
206	0x3e04894b	0.12942998
207	0xbe161790	-0.14657426
208	0x3d7872b3	0.06065626
209	0x3cea9730	0.028636545
210	0x3cda6a6b	0.026662072
211	0xbd4ca6ee	-0.049963884
212	0x3dc44035	0.09582559
213	0xbdf33265	-0.11874846
214	0xbdf5d6db	-0.12003871
215	0x3d3e5560	0.04646814
216	0x3e0df0cf	0.13861392
217	0xbb1cd75a	-0.002393207
218	0x3e2bacbf	0.16765116
219	0xbc84c2a8	-0.0162061
220	0x3d7a6e2a	0.061140217
221	0xbd9b68a7	-0.0758832
222	0xbd48caa4	-0.04902138
223	0xbe1dbcd2	-0.1540406
224	0x3e1d54dc	0.15364403
225	0xbdd557c8	-0.104171336
226	0xbd3f46d0	-0.04669839
227	0x3a721fa4	0.0009236282
228	0xbdad97b4	-0.08476201
229	0x3ab11162	0.0013509209
230	0x3cf2337f	0.02956557
231	0xbca27d0f	-0.019835023
232	0xbaf91d17	-0.0019005862
233	0x3d7d964f	0.061910924
234	0x3ca62ee7	0.020286037
235	0x3dc960e9	0.09832937
236	0xbdb72a00	-0.08943558
237	0xbc85bbf4	-0.016324975
238	0x3d24ee71	0.040266458
239	0x3db2da46	0.087330386
240	0xbc67bbd0	-0.014143899
241	0x3e005ead	0.12536116
242	0x3da31323	0.079626344
243	0xbddd8f86	-0.108183905
244	0xbd1711c6	-0.036882184
245	0xbe2411fd	-0.16022487
246	0xbd4c0739	-0.049811576
247	0xbe1bb4b2	-0.15205649
248	0xbcaaf997	-0.020870967
249	0xbe1bd669	-0.1521851
250	0xbd80bf4c	-0.06286487
251	0xbcf21d46	-0.029554974
252	0x3d34e220	0.044160962
253	0x3e2e9d6f	0.17052244
254	0xbd9cc167	-0.07654076
255	0xbd1d5580	-0.038411617

fc2.bias f4 [64]
0	0xbd95b77e	-0.07310389
1	0x3da04c61	0.07827068
2	0xba3f4483	-0.0007296281
3	0xbdb4d16a	-0.08829005
4	0x3cd6f5cb	0.02624025
5	0x3d57c626	0.052679203
6	0x3b18daaf	0.0023323705
7	0xbc8b2abf	-0.016988156
8	0xbe1596ee	-0.14608356
9	0xbd8eeb74	-0.06978503
10	0x3d0ce1fb	0.0343952
11	0xbd2924c0	-0.041294813
12	0xbd198f35	-0.03749009
13	0xbdbff9b9	-0.09373803
14	0xbd95e848	-0.07319695
15	0xbd52b580	-0.051442623
16	0xbd080768	-0.03321019
17	0xbc991dab	-0.018690905
18	0xbdda0259	-0.10644979
19	0x3d206dcf	0.03916722
20	0xbe19b327	-0.15009747
21	0xbe336127	-0.1751753
22	0xbd26366e	-0.040579252
23	0x3caeee41	0.021353843
24	0xbd54a322	-0.051913388
25	0xbe0409d1	-0.1289437
26	0xbdb668c1	-0.08906699
27	0xbb01fd34	-0.0019834759
28	0xbdc41d5d	-0.09575913
29	0xbcf78714	-0.030215777
30	0x3d2043ec	0.039127275
31	0xbd99aa4f	-0.07503187
32	0xbe2db102	-0.16962054
33	0xbd4527ea	-0.04813377
34	0xbd8ef259	-0.06979818
35	0x3d344219	0.044008348
36	0xbdf5d18f	-0.12002861
37	0xbda4eda6	-0.0805314
38	0xbe20a121	-0.15686466
39	0xbdfc4274	-0.123173624
40	0xbd7286a7	-0.059210446
41	0xbd89c3a5	-0.06726769
42	0xbd66395a	-0.05620704
43	0xbdd0849f	-0.101815455
44	0x3d3eaa35	0.04654904
45	0x3d7c1932	0.061547466
46	0x3e0895c5	0.13338383
47	0x3e080628	0.13283598
48	0x3d41ffea	0.0473632
49	0xbe08fab0	-0.1337688
50	0xbd66ba9d	-0.056330312
51	0xbd9e2a3a	-0.07722898
52	0xbe2eb04f	-0.17059444
53	0xbdf3b835	-0.11900369
54	0xbd9e39e9	-0.07725889
55	0x3d3c63a4	0.045993462
56	0xbd067b99	-0.032832716
57	0xbdb8af45	-0.09017805
58	0x3ce5261f	0.02797228
59	0xbcf08c23	-0.029363697
60	0xbd1f72dd	-0.0389279
61	0xbd70cbd8	-0.05878815
62	0xbddf9727	-0.10917502
63	0xbdca0d15	-0.098657764

bn2.weight f4 [64]
0	0x3f7e756a	0.9939791
1	0x3f2d827c	0.6777723
2	0x3f191968	0.5980439
3	0x3f3d1fec	0.73876834
4	0x3f404094	0.7509854
5	0x3f1b3e86	0.6064228
6	0x3f1d3b77	0.6141886
7	0x3f51137f	0.81670374
8	0x3e2c6ca7	0.16838323
9	0x3ea5e594	0.32401717
10	0x3eec51eb	0.46156248
11	0x3f594558	0.84871435
12	0x3f5e19cd	0.8675812
13	0x3eb2b5ae	0.34904236
14	0x3e6845a4	0.22682816
15	0x3f677421	0.90411574
16	0x3e6480cf	0.22314762
17	0x3edecade	0.4351415
18	0x3eb7fc54	0.359347
19	0x3f61915d	0.8811243
20	0x3e8caf69	0.27477577
21	0x3e049c1d	0.12950177
22	0x3e60f381	0.2196789
23	0x3ed68af2	0.41902882
24	0x3e8c9f93	0.27465495
25	0x3f6545bd	0.8955954
26	0x3f12c1ff	0.57327265
27	0x3f498a22	0.787264
28	0x3e3205e5	0.17385061
29	0x3ea121f4	0.31471217
30	0x3f23f69d	0.64048177
31	0x3eaadaf0	0.3337016
32	0x3e69af6d	0.22820826
33	0x3f3289ae	0.6974133
34	0x3e12db67	0.14341508
35	0x3f29d361	0.66338164
36	0x3f49b076	0.78784883
37	0x3eb88c55	0.36044565
38	0x3e1dad82	0.15398219
39	0x3e306409	0.1722566
40	0x3e8c4d7d	0.2740287
41	0x3f25dcbc	0.6478994
42	0x3f5a0e75	0.8517831
43	0x3f6f2a8c	0.93424296
44	0x3df9a35b	0.12189361
45	0x3f549a04	0.8304751
46	0x3f2d4156	0.6767782
47	0x3ec71f4c	0.38891065
48	0x3f0944e0	0.5362072
49	0x3f76b4af	0.9636945
50	0x3f3904a1	0.7227269
51	0x3f0845b7	0.53231376
52	0x3e8aed8b	0.27134356
53	0x3e18617f	0.14880942
54	0x3eaf0cdb	0.34189495
55	0x3e81667c	0.25273502
56	0x3f4ce3f2	0.80035317
57	0x3ef498f2	0.47772938
58	0x3f196bc6	0.59930074
59	0x3e1d29cd	0.15347977
60	0x3f118326	0.5684074
61	0x3f6092a3	0.8772375
62	0x3e9acddb	0.3023518
63	0x3f136bca	0.5758635

bn2.bias f4 [64]
0	0x352d7b21	6.46267e-07
1	0xb40463b2	-1.2329727e-07
2	0x36b93e35	5.5206715e-06
3	0xb76b43c1	-1.4022867e-05
4	0xb7b8f0ef	-2.2046703e-05
5	0xb76abdf5	-1.3991715e-05
6	0x37145fb9	8.843775e-06
7	0xb73039ca	-1.05038725e-05
8	0x37634bcd	1.3547903e-05
9	0x37adfc75	2.0740767e-05
10	0x35f4a995	1.8228772e-06
11	0xb7d40aeb	-2.5277453e-05
12	0x368028b6	3.8194366e-06
13	0xb60c105f	-2.0871155e-06
14	0xb71e5a77	-9.438597e-06
15	0xb67c22c0	-3.7571153e-06
16	0x3747bdc2	1.1905506e-05
17	0xb812266b	-3.4844892e-05
18	0x37c7db8f	2.3824889e-05
19	0xb6cfd834	-6.19425e-06
20	0xb766808a	-1.3738996e-05
21	0xb894acf9	-7.0894086e-05
22	0xb81dfaa6	-3.766515e-05
23	0x383f1ea3	4.556648e-05
24	0x380aa3e0	3.3054384e-05
25	0xb797c5d0	-1.8092716e-05
26	0x37288c42	1.0046237e-05
27	0xb7d188d2	-2.4978453e-05
28	0x37a36695	1.9478883e-05
29	0x36cdf262	6.137693e-06
30	0xb7097a69	-8.194337e-06
31	0xb7ec4b4a	-2.8168452e-05
32	0x37178b06	9.03267e-06
33	0xb7135158	-8.780822e-06
34	0xb715381d	-8.894157e-06
35	0x379d3640	1.874112e-05
36	0xb79d17ba	-1.8726907e-05
37	0xb7966ccc	-1.7932056e-05
38	0x381dcfa5	3.76251e-05
39	0xb84b2ea0	-4.8442394e-05
40	0x378789d9	1.6157444e-05
41	0xb80e99ba	-3.3998607e-05
42	0x37af34eb	2.0886268e-05
43	0xb6d3ee15	-6.3160064e-06
44	0xb6655b43	-3.417678e-06
45	0x371b43b9	9.254488e-06
46	0xb7dfd637	-2.6683423e-05
47	0xb764c658	-1.36360395e-05
48	0x37bd76b3	2.258583e-05
49	0xb5a86c1c	-1.2548439e-06
50	0x3602012f	1.9372198e-06
51	0xb796bca3	-1.7969234e-05
52	0xb744169b	-1.1687774e-05
53	0xb84bf8a0	-4.863052e-05
54	0xb682f776	-3.90311e-06
55	0x372a5597	1.0152718e-05
56	0x36961003	4.4722124e-06
57	0xb892d301	-7.001125e-05
58	0x37efbaa7	2.8577937e-05
59	0xb67eb0ca	-3.7951854e-06
60	0xb7cdacf3	-2.451844e-05
61	0x36d26e2b	6.271313e-06
62	0x365bce0b	3.2753476e-06
63	0x373727e5	1.0916939e-05

bn2.running_mean f4 [64]
0	0x3e1496c7	0.14510642
1	0x3e61a3c4	0.22035128
2	0x3ddc37d5	0.107528366
3	0x3de00f2e	0.10940395
4	0x3e81df38	0.25365615
5	0x3e3924f0	0.18080497
6	0x3e9c2727	0.3049862
7	0x3da4dab2	0.08049525
8	0x3d15da89	0.036585364
9	0x3e3dbade	0.18528315
10	0x3e1d68ca	0.15372005
11	0x3e4748a0	0.19461298
12	0x3e23c5e6	0.15993461
13	0x3de02b64	0.10945776
14	0x3d24445a	0.040104248
15	0x3e543952	0.20724991
16	0x3e4a5b3a	0.19761363
17	0x3e7c2856	0.24624762
18	0x3d48f9f2	0.04906649
19	0x3e385213	0.18000059
20	0x3b9056a0	0.0044048578
21	0x3d47b11e	0.048752896
22	0x3e3776b2	0.17916372
23	0x3e9135e0	0.28361416
24	0x3e81738b	0.25283465
25	0x3cc8f2c4	0.024529822
26	0x3d4ff342	0.050769098
27	0x3e5d8429	0.21632446
28	0x3d43438e	0.047671847
29	0x3cb6f085	0.022331486
30	0x3e8a600a	0.27026397
31	0x3dd62f23	0.10458209
32	0x3dbf4673	0.09339609
33	0x3e1513e2	0.14558366
34	0x3dece702	0.11567499
35	0x3f031b98	0.5121398
36	0x3d263dac	0.04058616
37	0x3e47145b	0.19441359
38	0x3d909ea9	0.07061512
39	0x3d94a9f7	0.07258981
40	0x3e02dd5a	0.12779751
41	0x3e22efec	0.15911835
42	0x3e7ac47c	0.24489015
43	0x3e0397d3	0.12850885
44	0x3e50073d	0.20315261
45	0x3e8c64b7	0.2742059
46	0x3ea13e09	0.31492642
47	0x3e593169	0.21210255
48	0x3e621bed	0.22080965
49	0x3d5b8a56	0.053598724
50	0x3e3c9d11	0.18419291
51	0x3e04e892	0.12979344
52	0x3c29f03a	0.010372216
53	0x3db874ee	0.090066776
54	0x3e058693	0.13039617
55	0x3e976652	0.29570252
56	0x3e0055d0	0.12532735
57	0x3ddd2ac7	0.10799175
58	0x3df70f3e	0.12063454
59	0x3e135f63	0.14391856
60	0x3e140210	0.14453912
61	0x3d9b3243	0.07577946
62	0x3d43d1bd	0.047807444
63	0x3d0784ca	0.033085622

bn2.running_var f4 [64]
0	0x3dccf6c1	0.10008002
1	0x3e069f37	0.13146673
2	0x3d44c467	0.048038866
3	0x3d12263b	0.03568099
4	0x3df5557a	0.11979194
5	0x3d9cfde3	0.076656125
6	0x3e5c5aba	0.21518984
7	0x3cb388f0	0.021915883
8	0x3c118b27	0.008883274
9	0x3da08b61	0.078390844
10	0x3d38706b	0.045029085
11	0x3dfadaf4	0.12248793
12	0x3dbc42ec	0.09192452
13	0x3d0216c0	0.031759977
14	0x3c970f7e	0.018440004
15	0x3d96cc5c	0.07363197
16	0x3e268447	0.16261397
17	0x3e027d29	0.12743057
18	0x3c48c452	0.012253838
19	0x3d83bfe5	0.06433085
20	0x3a10a75d	0.0005518103
21	0x3c385234	0.0112500675
22	0x3dbc909c	0.092072695
23	0x3de8d9a7	0.11369639
24	0x3de9586c	0.11393818
25	0x3bd034b2	0.006353938
26	0x3d0ea6fe	0.034827225
27	0x3dcb7e7f	0.099362366
28	0x3c34ea3e	0.011042176
29	0x3b9e8956	0.004838149
30	0x3e111899	0.1416954
31	0x3d3287f6	0.043586694
32	0x3d0c5914	0.03426464
33	0x3d8aee7c	0.067837685
34	0x3d331116	0.043717466
35	0x3eab7c79	0.33493403
36	0x3c65fbfa	0.014037127
37	0x3da6c2d5	0.0814263
38	0x3cb24ee3	0.021766132
39	0x3d10b53e	0.035329096
40	0x3d668ebc	0.056288466
41	0x3dc3fbc9	0.095695086
42	0x3e414a62	0.18876031
43	0x3d5d4547	0.054021146
44	0x3d4af0ab	0.049545925
45	0x3e2ad018	0.16680944
46	0x3dcc7efb	0.09985157
47	0x3d960801	0.073257454
48	0x3dee6c5e	0.11641763
49	0x3c4c8b88	0.012484439
50	0x3d4f692a	0.0506374
51	0x3d3d3763	0.0461954
52	0x3b0d2dfa	0.0021542297
53	0x3cbeb449	0.023279326
54	0x3dcdbca8	0.10045749
55	0x3dc6d4e2	0.09708573
56	0x3d290516	0.041264616
57	0x3d0f93c4	0.03505303
58	0x3d1bdbaf	0.038051303
59	0x3d415532	0.04720039
60	0x3d0148a7	0.031563427
61	0x3cef5219	0.029213952
62	0x3cc2b6ec	0.023768865
63	0x3c5699c8	0.013098188

fc3.weight f4 [2, 64]
0	0xbc734033	-0.014846849
1	0x3cc5c6c3	0.024142629
2	0x3c38a29b	0.011269237
3	0x3c91791e	0.017757948
4	0xbbba02d6	-0.0056766076
5	0xbcabb4be	-0.020960208
6	0xbc1a4163	-0.0094150035
7	0x3cb20daa	0.021735031
8	0xbd176b7d	-0.036967743
9	0x3d296c98	0.04136333
10	0xbb9ca211	-0.004780062
11	0x3c86c930	0.016453356
12	0xbd2bff48	-0.041991502
13	0xbcd50504	-0.026003368
14	0x3dc87c30	0.09789312
15	0xbc095ea6	-0.008384382
16	0x3d58aed3	0.0529011
17	0x3b8140b0	0.003944479
18	0x3a324d0a	0.0006801641
19	0x3c7bff3d	0.015380678
20	0xbd8530e5	-0.065034665
21	0x3c067d4e	0.008208586
22	0xbd0d3bff	-0.034481045
23	0x3cde638b	0.027147075
24	0xbcfebcae	-0.031095829
25	0x3bc88a92	0.0061200345
26	0x3bedf573	0.007261926
27	0x3c906f43	0.017631179
28	0x3b716d17	0.0036838704
29	0x3d3a6301	0.045504574
30	0xbcba133f	-0.022714255
31	0x3d43850b	0.0477343
32	0x3d1ea373	0.038730096
33	0xbceb02fd	-0.028687948
34	0xbcd6f073	-0.026237702
35	0x3c77d595	0.0151266055
36	0xbbc1a7d7	-0.0059099006
37	0xbc4cccf2	-0.012500035
38	0xbd6081d7	-0.054811325
39	0x3d169a15	0.036768038
40	0xbc93818c	-0.018006109
41	0x3c758660	0.014985651
42	0xbc335428	-0.010945357
43	0xbca02903	-0.019550806
44	0x3c878b40	0.016545892
45	0xbbd12a55	-0.00638322
46	0xbc5cdbc4	-0.013480131
47	0x3c449d0d	0.012000334
48	0xbc2842fd	-0.0102698775
49	0xbc004dec	-0.007831078
50	0x3c015c30	0.007895514
51	0xbc34f367	-0.01104436
52	0xbd73d4e4	-0.0595292
53	0xbd734eec	-0.059401438
54	0x3cb88d50	0.02252832
55	0xbd14b3aa	-0.036304154
56	0x3c36ecd6	0.0111648645
57	0xbc8c1a07	-0.017102255
58	0x3c37016f	0.011169775
59	0xbd33868a	-0.04382948
60	0x3c802a0f	0.015645055
61	0xbc2b639b	-0.0104607595
62	0x3c9373bb	0.01799952
63	0x39fa96fa	0.00047796202
64	0xbcae0d7e	-0.021246668
65	0x3cadc3ff	0.021211622
66	0x3a16f7f3	0.0005758993
67	0xbc0ac0f4	-0.008468855
68	0xbc6d66c0	-0.01448983
69	0xbcbfedee	-0.023428883
70	0x3b7058d6	0.0036674044
71	0xbc526599	-0.012841606
72	0xbd7c68b4	-0.06162329
73	0xbd47f0c8	-0.04881361
74	0xbc00fbca	-0.007872531
75	0xbbc885e6	-0.0061194776
76	0xbc2befc5	-0.010494177
77	0x3ce9994f	0.028515486
78	0xbbc6e95f	-0.0060703005
79	0x3a7845e0	0.00094708614
80	0x3cc120ff	0.023575304
81	0xbb9f9692	-0.0048702443
82	0xbcdd2fc1	-0.02700031
83	0x3bb12d7a	0.0054070326
84	0x3d019b72	0.031642385
85	0x3e0a90b0	0.13531756
86	0x3d378e0a	0.044813193
87	0x3c7507d4	0.01495548
88	0xbc652556	-0.013985952
89	0xbc67e269	-0.0141531015
90	0x3bd23ac2	0.006415696
91	0x3c494f28	0.012286939
92	0xbe36202a	-0.17785707
93	0xbc2f83bc	-0.01071256
94	0x3bb73705	0.0055912756
95	0x3cf54033	0.02993784
96	0xbe3900ac	-0.18066663
97	0xbbca8cf9	-0.006181356
98	0x3bd3e416	0.006466399
99	0x3a9f9edb	0.001217808
100	0x3bd48fd5	0.0064868727
101	0x3baac9a8	0.0052120276
102	0xbd8c0f83	-0.06838896
103	0x3cc67c05	0.024229059
104	0x3d120334	0.035647586
105	0x3cb47170	0.022026747
106	0x3c0f0890	0.008730069
107	0x3b97b007	0.0046291384
108	0xbe04b880	-0.12961006
109	0x3c9cc698	0.019137666
110	0xbc8542c2	-0.016267184
111	0x3cf53cfc	0.029936306
112	0x3c5d31a9	0.013500609
113	0x3bbc8503	0.005753161
114	0xbbfc0a6e	-0.007691673
115	0xba49812a	-0.00076867884
116	0xbc2b2029	-0.010444679
117	0xbdaa98e1	-0.083299406
118	0x3c435e77	0.011924378
119	0xbd1a3fca	-0.03765849
120	0x3ba8aa95	0.005147288
121	0x3b9019ed	0.004397622
122	0x3c06d79d	0.008230117
123	0xbcc0d854	-0.023540653
124	0x39cec292	0.00039436348
125	0xbc934ed7	-0.01798193
126	0x39cd7433	0.00039187222
127	0xbcc36c06	-0.02385522

fc3.bias f4 [2]
0	0xbd8a4581	-0.06751538
1	0xb8b33a63	-8.5462605e-05

bn3.weight f4 [2]
0	0x4025123b	2.5792377
1	0x40521d93	3.283055

bn3.bias f4 [2]
0	0xbcb4affa	-0.022056568
1	0x3e4b5bbb	0.19859211

bn3.running_mean f4 [2]
0	0xbd8a5916	-0.06755273
1	0xb8d5039e	-0.00010157305

bn3.running_var f4 [2]
0	0x3b92ee88	0.0044840015
1	0x3b8909a8	0.0041820593
