2. Value-Based Methods/p1_navigation/checkpoint.pth (torch_old, 520726 bytes, 8 tensors)

fc1.weight f4 [111, 37]
0.11545311 0.048847534 -0.17034043 -0.25254998 -0.09697803 0.1796395 -0.18333474 0.022511888
-0.14776577 -0.00035560108 0.034292854 -0.19585061 -0.18749265 -0.060153555 -0.4569471 -0.02148113
0.10222927 0.1786497 -0.31128207 0.03268022 0.09821192 -0.11887714 0.04815798 0.20391099
-0.46962857 0.004932002 0.18272772 -0.16841653 0.07316977 0.054371603 -0.16891995 0.26723
-0.33867994 0.11182275 -0.1660887 -0.1379158 -0.02251433 0.14973362 0.15176892 -0.03288247
-0.056417264 -0.26525635 0.043934505 -0.27512762 -0.06117679 -0.17659149 0.13948274 0.10620093
-0.18207793 -0.025385574 0.106867895 0.30379492 -0.037124813 0.13164108 -0.022748796 0.05069547
-0.17303085 -0.005728229 -0.12909883 -0.23801288 -0.014900359 0.5218415 -0.085638076 0.067519896
0.060099684 -0.1737821 -0.21317635 0.0025504152 0.05070112 0.15802696 -0.049775366 0.2239693
0.03372987 0.024065983 -0.017908514 0.14103326 0.10398081 -0.005967213 0.11423333 -0.644123
0.10746454 0.2229805 0.1994871 -0.33173162 -0.26277298 0.08140947 -0.014386907 0.07495823
0.13252348 -0.36786506 0.15317018 0.12751216 0.20936792 -0.0029305026 -0.6691736 0.071152054
0.030534545 0.16988817 -0.06811243 -0.33908555 0.19626808 0.13883595 0.16929248 -0.14236532
-0.39191112 0.041451223 -0.045807466 -0.09078119 0.034873858 -0.0040138345 -0.012177646 0.10535998
-0.16405483 0.16643535 0.19039814 -0.20660862 -0.03292665 0.14614645 -0.04581676 0.28415063
0.37678656 0.23738581 -0.28167778 -0.021492703 -0.21571064 -0.22168103 -0.09332098 -0.004241408
0.013616254 -0.16896686 -0.078735396 0.05971678 -0.04777602 -0.03948359 0.2249207 0.07151986
-0.0902837 -0.22443129 0.19437851 0.17012803 0.3055817 0.15996853 0.21977334 -0.05490015
-0.1389234 -0.24460256 0.14688751 -0.025202448 -0.14567968 -0.12734526 -0.1653586 -0.1516707
-0.015279811 0.091089666 -0.10165894 -0.1269497 -0.08715709 -1.5345939 0.084722765 -0.089465015
-0.07501684 -0.1899413 -0.10064474 -0.19746852 0.017514028 -0.06658387 0.011372957 0.055209953
-0.19709966 -0.03723334 0.14210063 0.034508977 0.108000286 0.05675173 -0.008623504 0.09009495
-0.15673037 -0.16700874 0.068509266 0.027375646 0.03733164 -0.08812949 0.15290506 -0.07789586
0.065257214 0.06737507 -0.09745648 -0.02141428 -0.17636345 0.108161144 0.20824932 -0.11903304
-0.18962508 -0.5087464 -0.9353009 -0.09321458 -0.2787029 0.15195996 -0.1593422 -0.039672013
0.02729905 0.033461574 -0.1475295 -0.17723386 -0.06261451 0.082260974 0.022551116 0.017406674
0.16753955 0.11102884 -0.030523153 -0.20081688 0.10636312 0.0958581 -0.044556443 -0.03869251
-0.09741762 -0.089835286 0.14465871 -0.09527459 -0.12850875 0.06073373 0.13393316 -0.15765372
-0.057276085 -0.06543115 -0.09611526 -0.029724076 -0.2612255 0.01313248 -0.027618313 -0.03030431
-0.17844066 0.30047357 0.14071402 -0.22191514 0.0060191327 -0.19242014 -0.35815436 0.12530644
0.12763327 -0.069793366 -0.045779184 0.17962801 -0.17811243 -0.09275886 0.3134789 -0.13870302
-0.1905393 -0.052996274 0.069939956 0.07643005 0.12063823 0.03971742 -0.037056305 -0.13710926
00000000: ae72 ec3d 5a14 483d b96d 2ebe 3b4e 81be
00000010: 6b9c c6bd 6bf3 373e 1abc 3bbe da6a b83c
00000020: e94f 17be f86f bab9 aa76 0c3d 108d 48be
00000030: 13fe 3fbe 9363 76bd f8f4 e9be 32f9 afbc
00000040: 945d d13d f2ef 363e 5d60 9fbe b2db 053d
00000050: 5523 c93d dc75 f3bd 4d41 453d 0bce 503e
00000060: 2873 f0be a29c a13b fa1c 3b3e 6275 2cbe
00000070: 08da 953d c2b4 5e3d 5af9 2cbe 5fd2 883e
00000080: 7567 adbe 5303 e53d 2813 2abe cd39 0dbe
00000090: f96f b8bc c553 193e 5069 1b3e c5af 06bd
000000a0: ca15 67bd aecf 87be abf4 333d 87dd 8cbe
000000b0: 8494 7abd 66d4 34be 90d4 0e3e e07f d93d
000000c0: a372 3abe 68f5 cfbc 8edd da3d 028b 9b3e
000000d0: 3010 18bd ebcc 063e af5b babc 0ea6 4f3d
000000e0: 002f 31be deb3 bbbb 7c32 04be a6b9 73be
000000f0: a320 74bc 6897 053f 0463 afbd df47 8a3d
00000100: 162b 763d eff3 31be e74a 5abe de24 273b
00000110: faab 4f3d d2d1 213e 41e1 4bbd 3558 653e
00000120: 5528 0a3d 0626 c53c e0b4 92bc 066b 103e
00000130: e4f3 d43d 9c88 c3bb 2af3 e93d 3fe5 24bf
00000140: 5e16 dc3d 0055 643e 5946 4c3e bad8 a9be
00000150: 2e8a 86be 02ba a63d 10b7 6bbc b383 993d
00000160: 3cb4 073e cf58 bcbe a5d8 1c3e 8c92 023e
00000170: 8b64 563e ad0d 40bb f64e 2bbf 2bb8 913d
00000180: 9523 fa3c 2af7 2d3e 887e 8bbd 9f9c adbe
00000190: 80fa 483e 032b 0e3e 025b 2d3e 37c8 11be
000001a0: 93a8 c8be c2c8 293d 9ca0 3bbd 7deb b9bd
000001b0: e4d7 0e3d 7c86 83bb c084 47bc f9c6 d73d
000001c0: fdfd 27be 076e 2a3e bbf7 423e 3691 53be
000001d0: 18de 06bd 6aa7 153e 5baa 3bbd 317c 913e
000001e0: 2bea c03e 4415 733e 1238 90be 7711 b0bc
000001f0: 40e3 5cbe 5a00 63be 121f bfbd 82fb 8abb
00000200: b516 5f3c a605 2dbe 0640 a1bd 9599 743d
00000210: cab0 43bd 8bb9 21bd 9d51 663e 0179 923d
00000220: a9e6 b8bd 51d1 65be 290b 473e 0b36 2e3e
00000230: 3475 9c3e cace 233e 430c 613e fbde 60bd
00000240: f041 0ebe 1879 7abe ae69 163e 5d75 cebc
00000250: 0e2d 15be cc66 02be c453 29be 904f 1bbe
00000260: 2c58 7abc 388d ba3d 9032 d0bd 1aff 01be
00000270: 6b7f b2bd 936d c4bf 2183 ad3d 6f39 b7bd
00000280: 6ea2 99bd f97f 42be d41e cebd 3035 4abe
00000290: 9479 8f3c 205d 88bd a455 3a3c d523 623d
000002a0: 7ed4 49be fd81 18bd d482 113e 4959 0d3d
000002b0: 412f dd3d 8174 683d 9949 0dbc b383 b83d
000002c0: ed7d 20be 5704 2bbe 964e 8c3d e442 e03c
000002d0: 10e9 183d 3c7d b4bd 2593 1c3e dd87 9fbd
000002e0: 93a5 853d f1fb 893d 4397 c7bd 006d afbc
000002f0: 9f98 34be 9783 dd3d 4f3f 553e 98c7 f3bd
00000300: 142d 42be 343d 02bf e16f 6fbf 49e7 bebd
00000310: 26b2 8ebe 649b 1b3e 9a2a 23be 1f7f 22bd
00000320: 42a2 df3c 010f 093d f911 17be cb7c 35be
00000330: 093c 80bd 7178 a83d 1ebd b83c 7198 8e3c
00000340: 7d8f 2b3e 1763 e33d b10b fabc f1a2 4dbe
00000350: e8d4 d93d 4051 c43d d180 36bd 0a7c 1ebd
00000360: e482 c7bd 90fb b7bd 6a21 143e 531f c3bd
00000370: cc97 03be efc3 783d c625 093e fa6f 21be
00000380: 549a 6abd c400 86bd 14d8 c4bd e87f f3bc
00000390: 59bf 85be 9d29 573c cd3f e2bc bf40 f8bc
000003a0: 26b9 36be acd7 993e 5617 103e b93d 63be
000003b0: 253c c53b c909 45be 0260 b7be 5550 003e
000003c0: 4cb2 023e d3ef 8ebd f482 3bbd 68f0 373e
000003d0: 1b63 36be 5bf8 bdbd 4e80 a03e 2a08 0ebe
000003e0: bc1c 43be 9f12 59bd ae3c 8f3d 5c87 9c3d
000003f0: 2d11 f73d bcae 223d 5ac8 17bd 5f66 0cbe

fc1.bias f4 [111]
0.09982688 -0.1635402 -0.15201306 -0.1554835 -0.08510163 -0.15655032 0.11395462 0.07155708
0.046608582 -0.037445463 0.09544702 0.009895787 -0.012632795 0.10938173 0.085922964 -0.15968004
0.09060152 -0.082612336 0.046441246 -0.15832709 -0.029771226 -0.07512032 -0.14522943 -0.044650536
-0.025631065 -0.028408412 -0.10137365 0.18530217 0.036956802 -0.09444792 0.067239314 0.009526952
-0.00436815 0.047009386 -0.014020339 0.029788785 -0.17431958 -0.07458801 0.17010677 -0.099510066
0.0687713 0.14525037 -0.16585974 -0.08961944 0.12001431 0.022557488 -0.07483248 -0.013200082
0.08696769 -0.043602478 -0.024327226 0.13726334 -0.091299616 -0.07813203 0.032587834 -0.057777308
-0.07305067 0.037310265 0.017323613 -0.09660743 -0.042713486 -0.012969403 -0.049197376 -0.05697868
-0.10197236 0.090221286 0.034729544 0.047413766 0.034050137 0.010314294 0.17948583 0.046546746
0.0048755035 -0.11096389 0.081986666 -0.15230227 0.115740664 -0.23205303 -0.120383285 0.028790269
-0.074667476 0.12535888 -0.06887263 0.027026871 0.057269983 -0.106397234 0.1138799 -0.11692581
-0.07141434 -0.071824394 0.078259684 -0.012159281 -0.18492918 0.19064756 0.010886448 -0.053321477
0.007967777 -0.061136827 0.0342661 0.06889318 -0.018889189 -0.030974247 0.13644582 -0.14721718
-0.08489516 -0.036905114 -0.1341957 -0.039604127 -0.0046582096 -0.12835462 0.01209264
00000000: 0972 cc3d 1577 27be 50a9 1bbe 1137 1fbe
00000010: c349 aebd ba4e 20be 0a61 e93d 858c 923d
00000020: a4e8 3e3d 6a60 19bd ba79 c33d f021 223c
00000030: c8f9 4ebc 8703 e03d 61f8 af3d 2a83 23be
00000040: 4a8d b93d a830 a9bd 2d39 3e3d 7f20 22be
00000050: c9e2 f3bc afd8 99bd 06b7 14be 7be3 36bd
00000060: 3df8 d1bc c2b8 e8bc fd9c cfbd dabf 3d3e
00000070: 0460 173d e96d c1bd c4b4 893d ef16 1c3c
00000080: b322 8fbb ea8c 403d 90b5 65bc 9c07 f43c
00000090: d580 32be 99c1 98bd 7830 2e3e efcb cbbd
000000a0: f8d7 8c3d 83bc 143e 23d7 29be 668a b7bd
000000b0: 10ca f53d 7bca b83c c541 99bd 2845 58bc
000000c0: 1e1c b23d 8398 32bd e449 c7bc c38e 0c3e
000000d0: 4bfb babd b003 a0bd d27a 053d e6a7 6cbd
000000e0: 979b 95bd a6d2 183d 40ea 8d3c 1eda c5bd
000000f0: 56f4 2ebd 9e7d 54bc 3083 49bd 7a62 69bd
00000100: e2d6 d0bd f0c5 b83d 9140 0e3d f034 423d
00000110: 2878 0b3d 49fd 283c 22cb 373e cda7 3e3d
00000120: b0c2 9f3b 0941 e3bd a0e8 a73d 20f5 1bbe
00000130: 7109 ed3d 4f9f 6dbe 838b f6bd 92d9 eb3c
00000140: 43eb 98bd 145e 003e 180d 8dbd 7567 dd3c
00000150: ee93 6a3d cbe6 d9bd dd39 e93d cd76 efbd
00000160: ae41 92bd ab18 93bd 9d46 a03d b937 47bc
00000170: 135e 3dbe 1d39 433e 135d 323c 9f67 5abd
00000180: 478b 023c 9c6a 7abd 9c5a 0c3d de17 8d3d
00000190: 80bd 9abc b4bd fdbc 74b8 0b3e 1ac0 16be
000001a0: 83dd adbd d129 17bd 996a 09be f037 22bd
000001b0: e5a3 98bb 656f 03be 3520 463c

fc2.weight f4 [222, 111]
0.12608528 -0.115406886 -0.091073126 0.32873625 -0.21385977 -0.078545704 -0.20927756 0.12667379
0.00085280294 0.11059739 -0.039075438 -0.10484541 -0.1309758 -0.0379848 0.02839829 0.13650373
-0.28918839 -0.22951199 -0.1344988 0.102554895 0.04307763 -0.051571522 -0.013235973 0.059442803
0.037331194 0.057313 -0.043105166 -0.014615163 -0.0915244 -0.037170906 0.13094743 0.10701095
0.103848964 -0.042952508 0.044489462 -0.11165252 -0.07538171 0.012924451 0.18766597 0.0046094176
0.08237252 0.14632536 -0.09642764 -0.13874765 0.032904148 0.055124708 -0.2350142 -0.021571886
-0.09419155 0.021212796 -0.06390791 -0.043551378 -0.37352937 -0.11619026 -0.1659386 0.039882816
-0.00060717156 -0.053832043 -0.09697234 -0.12983859 0.16877842 -0.070156 0.21952118 0.01223891
-0.21469395 0.013095869 0.1554035 -0.052952826 0.10737996 -0.085874565 -0.086854696 0.031544197
0.03007865 -0.12173299 -0.091171 0.17243356 0.027840897 -0.13374807 -0.12843436 0.20310079
-0.014562974 -0.05224527 -0.08664734 -0.072821334 -0.07173874 0.034350082 0.10480243 -0.05780651
0.053112887 -0.07129476 0.123794094 -0.27657503 -0.10215147 0.011868343 -0.069888204 -0.1599062
-0.26726744 0.103761174 0.0036890828 0.0012362364 -0.0022580987 -0.025485178 -0.011609125 0.0025465796
0.014187871 0.024402305 0.093966916 -0.08325064 0.17095606 -0.20452058 -0.079956695 -0.3080333
0.01919153 0.0129828 -0.24795446 0.07024171 0.09537884 0.10196808 -0.42209196 0.17480427
0.10862623 -0.2140482 0.03416838 -0.09422114 0.02440746 -0.06623157 0.03417833 -0.15608175
-0.12755492 -0.11420355 0.11028084 -0.17435014 0.047969207 0.042916372 0.14540577 -0.0036394373
0.08643588 0.025841115 -0.12773423 -0.046815548 -0.12702134 -0.30503502 0.047452718 -0.05117056
0.1332117 -0.1659779 0.034477506 -0.23959006 -0.034902334 -0.085232496 -0.044772163 -0.11576668
-0.13010514 0.07922126 0.12762879 -0.52381253 -0.16683903 -0.060150817 -0.13996202 -0.0044692983
-0.026568672 -0.18660326 -0.0037170176 0.036833577 0.019444272 -0.16900349 0.06750105 -0.10635491
-0.042270735 -0.08157278 0.027976763 -0.0605198 0.06933217 0.033261046 -0.07323955 0.19208014
0.13922341 0.08220635 -0.025859006 -0.093713574 -0.08055393 -0.08380388 0.050583605 -0.1317807
-0.0063528763 0.082222 -0.05780192 0.29772827 -0.11583146 -0.33157983 -0.12671666 -0.20624894
0.07902652 0.042568956 -0.020318873 -0.12925091 -0.021598091 -0.07711285 0.16051032 0.023213925
0.08842017 -0.19769475 -0.195736 -0.21679553 0.08138189 -0.080845155 0.09216334 -0.27241445
-0.062719785 -0.23433137 0.08837913 -0.06124373 0.1429953 0.188931 -0.012133173 0.024064315
0.13463731 0.027521431 -0.038464483 -0.07851647 -0.15591694 -0.09422937 0.049473166 -0.09424954
-0.3274059 -0.04905696 -0.025003426 -0.044461735 -0.319076 0.06862941 -0.110469386 -0.25819477
0.15727141 -0.036751132 0.09129133 -0.02398578 0.023459956 0.17756322 0.030778676 0.045420896
-0.021437882 0.1322804 0.033526614 0.043950208 -0.17464358 -0.10268299 -0.051446453 0.21397085
0.2602115 -0.25250462 0.02899621 -0.023023158 -0.07963616 -0.054867756 -0.012797529 -0.0059690177
00000000: 801c 013e 725a ecbd 8c84 babd 1e50 a83e
00000010: 0efe 5abe 92dc a0bd db4c 56be c6b6 013e
00000020: a38e 5f3a e280 e23d 910d 20bd 31b9 d6bd
00000030: 851e 06be f395 1bbd 88a3 e83c a2c7 0b3e
00000040: 8010 94be 3105 6bbe 0eba 09be 4d08 d23d
00000050: 2b72 303d a93c 53bd b2db 58bc 4c7a 733d
00000060: 98e8 183d 09c1 6a3d 0b8f 30bd 7074 6fbc
00000070: 2571 bbbd 8540 18bd 1517 063e 8f28 db3d
00000080: c4ae d43d f8ee 2fbd 953a 363d 14aa e4bd
00000090: ba61 9abd 14c1 533c 822b 403e 990a 973b
000000a0: ecb2 a83d 51d6 153e db7b c5bd dd13 0ebe
000000b0: 80c6 063d 72ca 613d 90a7 70be 86b7 b0bc
000000c0: 80e7 c0bd 75c6 ad3c 26e2 82bd ee62 32bd
000000d0: 3e3f bfbe 29f5 edbd cfeb 29be 2a5c 233d
000000e0: 982a 1fba fd7e 5cbd 6f99 c6bd 68f4 04be
000000f0: 40d4 2c3e f3ad 8fbd 29ca 603e b685 483c
00000100: bbd8 5bbe 0e90 563c 1822 1f3e 10e5 58bd
00000110: 06ea db3d 01df afbd e0e0 b1bd 7d34 013d
00000120: 8067 f63c 254f f9bd dcb7 babd 6c92 303e
00000130: 9812 e43c 41f5 08be 4c84 03be a7f9 4f3e
00000140: 8a99 6ebc 23ff 55bd 2974 b1bd 5a23 95bd
00000150: c3eb 92bd acb2 0c3d a8a2 d63d 85c6 6cbd
00000160: e68c 593d fd02 92bd c287 fd3d 3e9b 8dbe
00000170: ca34 d1bd 7073 423c 8c21 8fbd 73be 23be
00000180: 47d7 88be bd80 d43d 8ac4 713b 3609 a23a
00000190: 9cfc 13bb 4bc6 d0bc 3334 3ebc 84e4 263b
000001a0: 3e74 683c 58e7 c73c ba71 c03d 507f aabd
000001b0: 1b0f 2f3e d86d 51be 56c0 a3bd 8ab6 9dbe
000001c0: 8e37 9d3c cfb5 543c c6e7 7dbe e3da 8f3d
000001d0: fb55 c33d a4d4 d03d 701c d8be e4ff 323e
000001e0: 6e77 de3d 742f 5bbe 25f4 0b3d 03f7 c0bd
000001f0: 27f2 c73c 6ba4 87bd 94fe 0b3d e5d3 1fbe
00000200: c29d 02be 8de3 e9bd ecda e13d d888 32be
00000210: 5c7b 443d 14c9 2f3d 40e5 143e a083 6ebb
00000220: 4b05 b13d bfb0 d33c c3cc 02be a9c1 3fbd
00000230: e211 02be 8d2d 9cbe c85d 423d 3998 51bd
00000240: a668 083e 1cf6 29be 4938 0d3d 1957 75be
00000250: c0f5 0ebd 608e aebd 0463 37bd 1517 edbd
00000260: 483a 05be c23e a23d 1fb1 023e 9418 06bf
00000270: dad7 2abe b460 76bd 3452 0fbe 3173 92bb
00000280: 8ba6 d9bc ed14 3fbe 3599 73bb cede 163d
00000290: 9849 9f3c 400f 2dbe fe3d 8a3d 9ad0 d9bd
000002a0: 1424 2dbd a10f a7bd 862f e53c 9ce3 77bd
000002b0: 06fe 8d3d bc3c 083d 9efe 95bd a8b0 443e
000002c0: 9590 0e3e ce5b a83d 44d6 d3bc e7ec bfbd
000002d0: 75f9 a4bd 5ea1 abbd c130 4f3d 85f1 06be
000002e0: ca2b d0bb 0264 a83d b5c1 6cbd d76f 983e
000002f0: 0b39 edbd d5c4 a9be 03c2 01be ec32 53be
00000300: a8d8 a13d c95c 2e3d c473 a6bc 5a5a 04be
00000310: 7bee b0bc 58ed 9dbd d15c 243e 212b be3c
00000320: a215 b53d 7e70 4abe 056f 48be a6ff 5dbe
00000330: 8cab a63d 2592 a5bd 22c0 bc3d e879 8bbe
00000340: 3b73 80bd 90f4 6fbe 1e00 b53d b5da 7abd
00000350: 5c6d 123e 2177 413e 37ca 46bc 8722 c53c
00000360: 5dde 093e a074 e13c ef8c 1dbd 3ecd a0bd
00000370: b1a8 1fbe 54fb c0bd 60a4 4a3d e705 c1bd
00000380: bfa1 a7be f3ef 48bd fcd3 ccbc 821d 36bd
00000390: ee5d a3be 938d 8c3d c63d e2bd 1b32 84be
000003a0: c20b 213e 5b88 16bd f3f6 ba3d d47d c4bc
000003b0: 182f c03c 22d3 353e 9023 fc3c 430b 3a3d
000003c0: 7f9e afbc 8374 073e 3453 093d 2205 343d
000003d0: c4d5 32be 764b d2bd 84b9 52bd 2d1b 5b3e
000003e0: 713a 853e 4948 81be 7689 ed3c 109b bcbc
000003f0: 4818 a3bd 03bd 60bd baac 51bc c097 c3bb

fc2.bias f4 [222]
0.046550684 0.011297127 -0.073048525 0.12950821 -0.08436894 0.013835587 4.974822e-06 0.041561645
-0.047983564 -0.066303395 0.0829914 -0.12516668 -0.114682965 -0.07574741 0.08391341 -0.037821077
-0.040383313 0.0966677 -0.07624885 0.051952988 0.10700856 0.06412379 -0.060184278 -0.010631323
0.096921824 -0.07794584 -0.01875648 0.08747303 0.067215644 0.07284991 -0.04181964 0.047395002
-0.08087354 -0.13891944 -0.016200988 -0.114326194 0.023702824 0.08986598 0.08485875 -0.041927956
-0.024148058 -0.011221521 0.049280867 -0.008782803 0.06988585 -0.019449038 -0.009339407 0.01249023
-0.104035236 -0.027759396 -0.027843 0.031381316 0.005947696 0.07531022 -0.048707567 -0.0019650443
0.011179985 -0.05146303 0.08019195 -0.0714216 0.06260044 -0.11250544 0.02122727 -0.008937737
-0.013199631 0.0023669943 0.043706406 -0.06965417 -0.0042868773 -0.0004643191 -0.094931036 0.0341577
-0.048209447 0.02743784 -0.08915184 -0.002128743 -0.06939031 -0.04281541 -0.0062433374 0.009693491
-0.07560765 -0.029304007 -0.00023237632 -0.04733079 -0.035596035 -0.06291256 0.09353886 -0.03760228
0.03597198 -0.091604 0.022325186 -0.08662144 -0.057765506 -0.10723491 -0.015761787 -0.010143644
0.030217538 -0.032382183 -0.09264702 0.008798631 -0.11667901 0.12969524 0.0013857272 0.089933276
0.023993203 -0.08577955 0.049872894 -0.08747115 0.108148485 -0.10271929 -0.030315526 -0.05697614
0.14338842 -0.003877122 0.010973017 0.05688949 -0.036602087 0.01355035 0.002577786 -0.03831333
-0.0076408717 0.046854835 4.0467485e-06 -0.05887712 0.028976232 0.016164094 -0.12339404 0.0730552
0.13852489 0.019918554 -0.07749135 -0.018417532 -0.10789601 0.06786429 0.0058432044 -0.10250206
-0.10651043 -0.048273154 0.04726297 0.110283695 -0.068876006 0.00957805 -0.033021823 -0.011565412
-0.037845105 -0.13417943 0.13462019 -0.057170164 -0.01623265 -0.059438076 0.05091471 -0.007569652
-0.036614172 -0.004678776 -0.06462089 -0.045149975 -0.013934349 0.024879271 -0.043939248 0.11710121
0.007721914 -0.09629411 0.0072298236 -0.028447235 0.1458326 0.075045 -0.047539573 -0.049429335
0.043771304 -0.03660417 -0.118957125 -0.07999153 0.041797016 -0.08098453 -0.021018438 -0.00050309714
0.10743374 -0.020355836 -0.083852045 0.019216482 0.019946024 -0.076298766 0.027064042 -0.07587662
-0.07737937 0.01772348 0.014667105 -0.022958208 -0.059472278 -0.06284877 0.04203498 -0.07510482
-0.14556354 -0.040338043 0.08288109 -0.13701417 0.10575233 -0.06275294 0.09558808 0.003440707
0.049015936 -0.08912746 -0.029264972 0.09251112 -0.0033335225 -0.103565216 -0.019687068 0.0059064347
0.035232253 -0.054992825 -0.11533407 0.020474117 -0.019754749 0.0098992875 0.0485994 -0.058106225
-0.039249785 0.049094602 0.0080232695 -0.098426275 -0.076377 0.0895048
00000000: eeab 3e3d 9617 393c 779a 95bd cd9d 043e
00000010: 9fc9 acbd a8ae 623c 65ed a636 8b3c 2a3d
00000020: 6a8a 44bd 13ca 87bd 65f7 a93d b22b 00be
00000030: e7de eabd 7521 9bbd cbda ab3d 46ea 1abd
00000040: f968 25bd b7f9 c53d 5b28 9cbd a8cc 543d
00000050: 4e27 db3d 5553 833d ca83 76bd 002f 2ebc
00000060: f37e c63d 12a2 9fbd 31a7 99bc 0f25 b33d
00000070: 5ba8 893d 5532 953d 124b 2bbd 4321 423d
00000080: 07a1 a5bd e640 0ebe efb7 84bc da23 eabd
00000090: 6d2c c23c a80b b83d 6dca ad3d a6bc 2bbd
000000a0: 26d2 c5bc 78da 37bc bcda 493d bfe5 0fbc
000000b0: 5020 8f3d 9753 9fbc 5004 19bc d2a3 4c3c
000000c0: 6d10 d5bd ac67 e3bc 0117 e4bc b289 003d
000000d0: e4e4 c23b 3f3c 9a3d 9681 47bd f9c7 00bb
000000e0: 412c 373c e6ca 52bd ad3b a43d 7d45 92bd
000000f0: a934 803d 4169 e6bd d0e4 ad3c 966f 12bc
00000100: 4443 58bc 931f 1b3b 7d05 333d d8a6 8ebd
00000110: ef78 8cbb db6f f3b9 346b c2bd f2e8 0b3d
00000120: 4577 45bd 52c5 e03c 3d95 b6bd 6282 0bbb
00000130: 821c 8ebd 365f 2fbd e994 ccbb 73d1 1e3c
00000140: 2fd8 9abd f50e f0bc 0baa 73b9 eedd 41bd
00000150: 26cd 11bd 4dd8 80bd 4d91 bf3d d904 1abd
00000160: 5b57 133d e19a bbbd 4fe3 b63c 9566 b1bd
00000170: 869b 6cbd fa9d dbbd dd1e 81bc 8731 26bc
00000180: c58a f73c 2ea3 04bd b9bd bdbd 2228 103c
00000190: 68f5 eebd d4ce 043e 4aa1 b53a f02e b83d
000001a0: 658d c43c 30ad afbd 8547 4c3d 1324 b3bd
000001b0: f47c dd3d 7e5e d2bd 4458 f8bc d05f 69bd
000001c0: 6ad4 123e 5017 7ebb 2bc8 333c f404 693d
000001d0: 12ec 15bd 4a02 5e3c 13f0 283b 70ee 1cbd
000001e0: 4760 fabb dbea 3f3d 4ec9 8736 2329 71bd
000001f0: 905f ed3c 906a 843c 04b6 fcbd f79d 953d
00000200: 78d9 0d3e 3c2c a33c c9b3 9ebd 5de0 96bc
00000210: 95f8 dcbd 6ffc 8a3d 5a78 bf3b 9aec d1bd
00000220: 2422 dabd 12ba 45bd d196 413d 6bdc e13d
00000230: dd0e 8dbd 41ed 1c3c e441 07bd db7c 3dbc
00000240: 7803 1bbd 5566 09be e0d9 093e 432b 6abd
00000250: 56fa 84bc 5775 73bd f18b 503d d80a f8bb
00000260: bef8 15bd 6b50 99bb f557 84bd 2eef 38bd
00000270: e54c 64bc 9dcf cb3c a4f9 33bd c2d2 ef3d
00000280: 1c08 fd3b d935 c5bd 28e8 ec3b 2d0a e9bc
00000290: 2455 153e 31b1 993d dbb8 42bd 6a76 4abd
000002a0: 8a49 333d 41ee 15bd cb9f f3bd 99d2 a3bd
000002b0: 5933 2b3d 38db a5bd dc2e acbc 47e2 03ba
000002c0: 3806 dc3d 48c1 a6bc 9fba abbd e26b 9d3c
000002d0: d865 a33c 8742 9cbd 69b5 dd3c 3465 9bbd
000002e0: 1379 9ebd d530 913c 4c4e 703c da12 bcbc
000002f0: 3499 73bd dbb6 80bd df2c 2c3d 8ed0 99bd
00000300: 9c0e 15be 8139 25bd 90bd a93d 714d 0cbe
00000310: ad94 d83d 9d84 80bd afc3 c33d 7c7d 613b
00000320: efc4 483d 7588 b6bd 18bd efbc 7876 bd3d
00000330: 3a77 5abb 001a d4bd c646 a1bc c48a c13b
00000340: b24f 103d 2840 61bd 4534 ecbd 56b9 a73c
00000350: b6d4 a1bc 9f30 223c 2a10 473d cb00 6ebd
00000360: 62c4 20bd 6c17 493d 0874 033c b793 c9bd
00000370: 8b6b 9cbd 4b4e b73d

fc3.weight f4 [444, 222]
-0.015176665 -0.2330588 0.06990129 -0.054272547 0.07514634 -0.08411539 -0.018866394 -0.13020566
0.055937782 0.023721358 0.037858818 -0.019660428 0.1061417 0.08556883 -0.05899967 -0.014625941
-0.19083872 0.16192178 0.027939273 -0.28493887 0.09085876 0.17161855 -0.09901314 -0.06706166
-0.036159527 0.15273945 0.070816144 0.073923804 -0.12261639 0.060857095 -0.10862011 0.05732571
-0.13773574 0.10097507 0.103324346 0.099658765 0.095333524 0.011519608 -0.06270754 0.00426406
0.12461942 0.09115291 0.12552887 0.10980869 -0.0067091915 -0.05026294 0.15521574 0.018146494
0.023400987 -0.037987277 -0.00021260252 -0.107414775 0.059881493 0.14928105 -0.00053171953 0.050397515
-0.026060287 0.07701492 -0.2398444 -0.05114649 -0.01958658 -0.108590834 -0.01106094 -0.1708105
0.028366445 -0.003526997 0.20457928 -0.03977017 -0.112074085 0.018700805 -0.085373685 -0.009823255
-0.11514904 -0.17576747 0.04218388 0.0025907145 -0.098311394 -0.04257572 -0.21223357 0.11294891
-0.033851437 -0.17400755 -0.13410544 -0.07331921 -0.07578645 -0.015017806 0.15089712 0.06352121
-0.011971411 -0.21631986 -0.1545504 -0.09507676 -0.027680812 -0.07575684 -0.10579478 -0.11672108
-0.042118277 0.047988154 -0.101281255 0.1431371 -0.086451456 0.08781361 -0.15900356 0.0768992
0.055173345 0.2157531 0.08263234 -0.058538757 0.0038718593 0.029525151 0.03445418 0.025518969
0.09805025 -0.09768907 -0.012958082 0.10327268 -0.06009085 0.060670484 -0.06666954 0.04471486
-0.19954814 0.06696482 -0.023118272 -0.06819224 -0.13285367 0.078803256 -0.044121824 0.2233247
-0.16302319 -0.100514404 0.0019493214 0.034905374 -0.035203356 0.03272982 -0.06931464 -0.045420643
-0.07447403 -0.14254902 0.009665233 -0.07020506 -0.10061892 -0.15185963 -0.0552356 -0.08984519
0.102728695 0.13024542 0.05177349 0.15946235 -0.012007476 -0.09524853 0.113814704 -0.034745656
0.26199698 -0.021018827 -0.040800616 0.048461985 -0.00283985 -0.050652314 -0.014298423 0.0014276725
-0.0061935093 -0.010813024 -0.13850889 -0.029893555 -0.073681764 0.114663176 0.12220036 0.035095923
-0.04904327 -0.07873137 -0.041322555 -0.08129742 -0.14289585 0.014993835 -0.06910468 0.17447297
0.051016934 -0.12564579 -0.12453573 0.08118006 -0.056776352 -0.021289898 -0.22822867 -0.059213985
0.028739477 -0.111226894 0.084035315 0.037971217 -0.0055346624 0.0019245241 0.03848339 -0.15671214
-0.014180371 0.054500315 -0.1401496 0.033116676 0.07145449 -0.053356737 -0.06702217 0.10399845
-0.026108434 -0.049846686 0.035627037 -0.08983171 -0.11490957 0.038621336 -0.07571359 0.055597544
-0.05578172 -0.093832776 0.009268034 -0.060407102 0.057650242 -0.094954714 0.13912895 0.10585345
-0.17394641 -0.028501092 -0.19462866 0.0042946506 0.09375965 -0.010281314 0.0398456 0.024363812
0.008945683 0.01583994 -0.012531593 0.024040362 -0.022463303 -0.059126195 -0.037760388 -0.018084543
-0.059788156 -0.032696623 -0.040637083 -0.06435675 0.031812895 -0.017369805 -0.0812628 -0.044091716
-0.04109062 -0.02485838 0.009221759 0.024595777 -0.009135074 -0.0798225 0.040246308 -0.012318392
-0.010421062 0.0048135766 -0.067865945 -0.050150257 -0.046924498 -0.08818587 -0.03060411 -0.029780071
00000000: 8ca7 78bc f7a6 6ebe 6828 8f3d e44c 5ebd
00000010: 53e6 993d b144 acbd b28d 9abc a254 05be
00000020: 041f 653d 4b53 c23c d911 1b3d e80e a1bc
00000030: d260 d93d b63e af3d a3a9 71bd a5a1 6fbc
00000040: 3a6b 43be d3ce 253e e7e0 e43c 82e3 91be
00000050: 2814 ba3d c6bc 2f3e 67c7 cabd a057 89bd
00000060: 031c 14bd bb67 1c3e 0e08 913d 5d65 973d
00000070: 4d1e fbbd 4a45 793d 3874 debd 5dce 6a3d
00000080: 990a 0dbe 04cc ce3d b79b d33d e519 cc3d
00000090: 393e c33d bdbc 3c3c d06c 80bd 87b9 8b3b
000000a0: 7738 ff3d 60ae ba3d a48a 003e 61e3 e03d
000000b0: c7d8 dbbb 83e0 4dbd e0f0 1e3e f5a7 943c
000000c0: 6db3 bf3c 8c98 1bbd 0eee 5eb9 47fc dbbd
000000d0: 4c46 753d 22dd 183e 1863 0bba a06d 4e3d
000000e0: 627c d5bc 00ba 9d3d c599 75be fb7e 51bd
000000f0: 0974 a0bc df64 debd f238 35bc f3e8 2ebe
00000100: bf60 e83c 3125 67bb 3b7d 513e 0ce6 22bd
00000110: 1987 e5bd 6e32 993c 66d8 aebd b8f1 20bc
00000120: 43d3 ebbd 63fc 33be 01c9 2c3d fac8 293b
00000130: 7c57 c9bd e163 2ebd c253 59be c251 e73d
00000140: cea7 0abd 092f 32be f052 09be 6228 96bd
00000150: ed35 9bbd 3e0d 76bc c684 1a3e 6817 823d
00000160: bd23 44bc f482 5dbe 7642 1ebe 9bb7 c2bd
00000170: dfc2 e2bc 6726 9bbd efaa d8bd 760b efbd
00000180: 3784 2cbd 3a8f 443d 8c6c cfbd 8892 123e
00000190: 760d b1bd 9fd7 b33d d4d1 22be 547d 9d3d
000001a0: 72fd 613d 61ee 5c3e 253b a93d 56c6 6fbd
000001b0: 05bf 7d3b bbde f13c d41f 0d3d 280d d13c
000001c0: 92ce c83d 3511 c8bd 234e 54bc a080 d33d
000001d0: d321 76bd 9d81 783d 0a8a 88bd ee26 373d
000001e0: 5956 4cbe da24 893d 8862 bdbc 60a8 8bbd
000001f0: cb0a 08be 9a63 a13d 16b9 34bd 3baf 643e
00000200: 8def 26be 7fda cdbd 5f80 ff3a f0f8 0e3d
00000210: 6531 10bd b40f 063d d5f4 8dbd ff0a 3abd
00000220: d785 98bd 5ff8 11be ed5a 1e3c acc7 8fbd
00000230: 4b11 cebd 1781 1bbe b93e 62bd c100 b8bd
00000240: 6c63 d23d 0e5f 053e 7010 543d 194a 233e
00000250: 01bb 44bc a911 c3bd af17 e93d 7651 0ebd
00000260: 7824 863e ad2f acbc 8c1e 27bd 1380 463d
00000270: c71c 3abb cd78 4fbd ef43 6abc bd20 bb3a
00000280: ecf2 cabb 1c29 31bc 46d5 0dbe 54e3 f4bc
00000290: 77e6 96bd 87d4 ea3d 2f44 fa3d bec0 0f3d
000002a0: 99e1 48bd ea3d a1bd d741 29bd 437f a6bd
000002b0: 4a53 12be b4a8 753c c186 8dbd 0ba9 323e
000002c0: 22f7 503d 4aa9 00be 970c ffbd bb41 a63d
000002d0: 528e 68bd 2768 aebc c7b4 69be 5d8a 72bd
000002e0: 0d6f eb3c edca e3bd b51a ac3d b587 1b3d
000002f0: 1d5c b5bb 5040 fc3a c2a0 1d3d 2679 20be
00000300: c954 68bc b93b 5f3d 6083 0fbe 5aa5 073d
00000310: bb56 923d 988c 5abd eb42 89bd 24fd d43d
00000320: 5be1 d5bc 0a2c 4cbd a8ed 113d b0f9 b7bd
00000330: b555 ebbd 6831 1e3d ba0f 9bbd 40ba 633d
00000340: 5f7b 64bd 662b c0bd f4d8 173c 706d 77bd
00000350: a922 6c3d 9e77 c2bd d277 0e3e b2c9 d83d
00000360: 021f 32be 1f7b e9bc bc4c 47be 24ba 8c3b
00000370: 0f05 c03d f572 28bc 2435 233d 9e96 c73c
00000380: ea90 123c c3c2 813c 5051 4dbc 4bf0 c43c
00000390: f604 b8bc 4f2e 72bd a3aa 1abd 0926 94bc
000003a0: 6de4 74bd e5ec 05bd 1273 26bd 79cd 83bd
000003b0: 3d4e 023d 1f4b 8ebc 1c6d a6bd 8499 34bd
000003c0: a34e 28bd cda3 cbbc dc16 173c 157d c93c
000003d0: 47ab 15bc fb79 a3bd 50d9 243d 15d3 49bc
000003e0: 1abd 2abc 35bb 9d3b 4dfd 8abd 5b6a 4dbd
000003f0: e733 40bd cb9a b4bd 78b5 fabc 56f5 f3bc

fc3.bias f4 [444]
-0.058307897 -0.099392064 0.015393849 -0.010523977 -0.089755856 -0.08168259 -0.006073381 -0.09905715
-0.041380357 -0.047453064 -0.06809834 -0.091149494 -0.013290535 0.16056639 -0.014646608 -0.01603796
-0.12419688 -0.115027525 -0.029407667 -0.10324783 0.07345763 -0.06989401 -0.0059778243 -0.05289603
0.112888776 -0.08298806 -0.106489785 -0.07571092 -0.11929233 0.1477181 -0.10966191 0.22711624
0.023331434 0.058209036 0.024368715 -0.02767186 -0.02464626 -0.07883073 -0.035098515 -0.032213625
-0.08967376 -0.08103149 -0.023219997 -0.09867774 0.055010553 -0.12546587 -0.017747995 0.013618657
0.27065152 0.059631832 -0.07510696 0.24683677 0.030456588 -0.124852926 0.03486571 -0.08353735
-0.001313077 0.29331455 0.048704773 0.085976794 -0.049564455 -0.20572302 0.020036673 -0.13293354
-0.020317545 -0.09646314 -0.07040489 -0.18555278 0.074927814 -0.17187801 -0.09241497 0.017289713
0.14150937 0.086711355 -0.031176053 0.06195004 0.06667131 -0.048005253 0.14549342 0.03357606
0.0031567097 -0.07411202 0.10299785 0.12515308 0.18641366 -0.008235344 -0.04245675 0.04401324
-0.07491894 0.035189487 0.07844732 -0.00463981 0.031724777 0.092646584 0.024590772 -0.059729077
0.4026857 0.004935786 -0.09838352 -0.029044313 0.0668309 -0.093608774 -0.000739321 -0.023682881
-0.107298054 -0.15148318 0.17715451 0.0031126183 0.03402158 -0.17521186 0.0028107574 -0.061073404
0.05016557 0.043985676 -0.18537755 -0.025424311 0.05554818 -0.10690348 -0.04449404 0.073746145
0.004282058 -0.058437474 -0.16291396 0.072438434 -0.054922752 0.028496316 -0.09414522 -0.09337908
-0.09535283 -0.06680899 -0.1202904 -0.022744548 0.032500803 -0.08803026 -0.085010946 0.052165426
-0.09576879 -0.026243677 -0.101704165 0.15561904 -0.092459 -0.12948763 -0.062509306 -0.017678719
0.41180944 0.13501751 -0.13600531 0.103604786 -0.063466914 0.113948315 -0.11502048 -0.087462395
0.13022378 -0.026502395 0.13379739 -0.09639312 -0.024643866 -0.053569425 0.20435913 -0.037977993
-0.018153267 0.106817 -0.0857054 0.083239846 -0.06794244 0.069482155 0.36988437 -0.010555003
-0.042060453 -0.007367418 -0.056764655 -0.12041753 0.019247174 0.12309532 0.026900977 -0.06355063
-0.047676034 -0.03337028 0.09296193 -0.085271165 -0.043953437 -0.06407998 -0.076062836 0.011562163
-0.014024147 -0.062667236 0.17378032 -0.06992435 -0.049980175 0.08061861 -0.053586967 -0.057515513
-0.11837569 0.15463036 0.2270796 -0.096926026 -0.0698948 -0.13891248 0.011225868 0.014658139
0.29786658 0.04251618 0.10130699 0.0045024576 0.04439687 0.16407155 -0.043005638 -0.19843422
0.070149645 -0.044478588 -0.05402062 0.015513257 -0.10783559 -0.006014056 -0.052474566 -0.14512812
-0.003952132 -0.058575343 0.0152427135 -0.015355987 0.14452714 0.09290944 -0.015506051 -0.07883096
-0.12318927 -0.017633107 -0.035008926 -0.05646618 -0.06858881 -0.006335631 -0.03585029 0.03859359
-0.020879187 0.14800183 0.41150707 -0.10440927 0.12516075 0.054434992 -0.19216017 0.05685247
0.0020464452 0.0151849715 0.33079684 -0.0008536824 -0.037298214 -0.065885335 -0.044963785 -0.028372927
0.0035154766 -0.059471305 -0.054721396 -0.053360462 -0.017289137 -0.09877577 -0.0519067 -0.051609967
00000000: 43d4 6ebd 118e cbbd 7c36 7c3c c26c 2cbc
00000010: ebd1 b7bd 3449 a7bd 3603 c7bb 7ade cabd
00000020: 737e 29bd 255e 42bd 2477 8bbd 96ac babd
00000030: 8bc0 59bc 846b 243e 54f8 6fbc 0a62 83bc
00000040: ef5a febd 8d93 ebbd 59e8 f0bc 9973 d3bd
00000050: f470 963d 9724 8fbd a0e1 c3bb 82a9 58bd
00000060: 3b32 e73d a5f5 a9bd 5117 dabd 540e 9bbd
00000070: 8a4f f4bd 6a43 173e 6c96 e0bd 2991 683e
00000080: 9021 bf3c 996c 6e3d e6a0 c73c 19b0 e2bc
00000090: f4e6 c9bc 0172 a1bd 76c3 0fbd 6ff2 03bd
000000a0: e0a6 b7bd d6f3 a5bd dd37 bebc 8e17 cabd
000000b0: bf52 613d 207a 00be 3e64 91bc ca20 5f3c
000000c0: d692 8a3e 8240 743d aed1 99bd c7c2 7c3e
000000d0: 1880 f93c e4b2 ffbd 59cf 0e3d a115 abbd
000000e0: 8e1b acba 532d 963e a87e 473d 9a14 b03d
000000f0: 1904 4bbd 0ea9 52be f323 a43c bb1f 08be
00000100: fb70 a6bc 778e c5bd 7030 90bd 8c01 3ebe
00000110: c173 993d ca00 30be 0f44 bdbd 28a3 8d3c
00000120: d5e7 103e b995 b13d ec64 ffbc 53bf 7d3d
00000130: f88a 883d 28a1 44bd 3afc 143e 0d87 093d
00000140: cde0 4e3b 0bc8 97bd 89f0 d23d 2128 003e
00000150: 39e3 3e3e 89ed 06bc 21e7 2dbd 3a47 343d
00000160: 1a6f 99bd da22 103d fda8 a03d 8c09 98bb
00000170: d7f1 013d 7ebd bd3d 9672 c93c 7aa6 74bd
00000180: d22c ce3e 60bc a13b 4d7d c9bd 57ee edbc
00000190: a4de 883d f5b5 bfbd fece 41ba 9a02 c2bc
000001a0: 15bf dbbd 681e 1bbe fe67 353e 12fd 4b3b
000001b0: 365a 0b3d bd6a 33be af34 383b 1b28 7abd
000001c0: 6a7a 4d3d 532a 343d 9dd3 3dbe a546 d0bc
000001d0: 7d86 633d 36f0 dabd 623f 36bd 3808 973d
000001e0: 8250 8c3b 225c 6fbd ebd2 26be 9a5a 943d
000001f0: aef6 60bd 1b71 e93c 36cf c0bd 883d bfbd
00000200: 5848 c3bd 27d3 88bd d05a f6bd c652 babc
00000210: 901f 053d 3549 b4bd 381a aebd 6aab 553d
00000220: 6d22 c4bd fbfc d6bc 464a d0bd 995a 1f3e
00000230: 255b bdbd 6898 04be e104 80bd f6d2 90bc
00000240: b0d8 d23e 0842 0a3e fa44 0bbe bf2e d43d
00000250: f1fa 81bd bc5d e93d db8f ebbd 7c1f b3bd
00000260: 6259 053e 8d1b d9bc 2f02 093e c269 c5bd
00000270: efe1 c9bc 9d6b 5bbd 8543 513e d08e 1bbd
00000280: 29b6 94bc dfc2 da3d 5086 afbd a779 aa3d
00000290: 6825 8bbd a94c 8e3d 7c61 bd3e e4ee 2cbc
000002a0: 9547 2cbd 626a f1bb 0e82 68bd 779d f6bd
000002b0: 40ac 9d3c 6619 fc3d 705f dc3c d526 82bd
000002c0: f247 43bd 46af 08bd d362 be3d a6a2 aebd
000002d0: 8508 34bd 5d3c 83bd d5c6 9bbd 3a6f 3d3c
000002e0: 89c5 65bc ae57 80bd 78f3 313e 7f34 8fbd
000002f0: 03b8 4cbd 5f1b a53d 027e 5bbd 6395 6bbd
00000300: f46e f2bd 6c57 1e3e 8e87 683e 2781 c6bd
00000310: 0125 8fbd 133f 0ebe b4ec 373c b128 703c
00000320: f881 983e 7225 2e3d 0a7a cf3d 5a89 933b
00000330: 7ed9 353d 5f02 283e ae26 30bd 5732 4bbe
00000340: 9eaa 8f3d 2e2f 36bd ba44 5dbd 512b 7e3c
00000350: e8d8 dcbd 8f11 c5bb 92ef 56bd 779c 14be
00000360: e380 81bb b3ec 6fbd 93bc 793c ad97 7bbc
00000370: ecfe 133e 4e47 be3d 170d 7ebc 2072 a1bd
00000380: a84a fcbd 4e73 90bc 8565 0fbd 1549 67bd
00000390: 4a78 8cbd 209b cfbb c1d7 12bd 5014 1e3d
000003a0: d40a abbc cb8d 173e 0eb1 d23e 87d4 d5bd
000003b0: 242a 003e 3af7 5e3d a3c5 44be 23de 683d
000003c0: a71d 063b 63ca 783c 345e a93e a8c9 5fba
000003d0: 03c6 18bd e4ee 86bd f22b 38bd 576e e8bc
000003e0: e963 663b 2f98 73bd 8b23 60bd 8090 5abd
000003f0: f3a1 8dbc f34a cabd 1f9c 54bd f964 53bd

output.weight f4 [4, 444]
-0.11637917 0.023289697 -0.03084618 -0.1917775 -0.0109745795 0.004323314 0.14132862 0.10405291
0.16206585 -0.102223925 -0.0786792 0.02639011 0.15140066 0.057245165 0.021696618 0.039387416
-0.3026616 -0.06892702 0.072941005 0.018888956 -0.253781 0.12738627 0.06994436 -0.052230693
0.03865597 0.082665406 0.00078242325 -0.01891199 -0.0518491 0.0904411 -0.05524102 0.04267659
0.0041005397 -0.17545842 0.18817937 -0.04148391 0.21136323 -0.089895934 0.064300805 0.23011665
0.013619452 -0.15245226 0.013673069 0.01849775 -0.21110497 -0.20712018 0.19217081 -0.057292275
0.10677865 0.22623177 -0.10741107 0.10107046 -0.14086246 0.063634634 0.15618977 0.014410234
0.07275191 0.11219443 -0.24161533 0.054097034 0.032100428 -0.13787726 0.023275392 -0.13010947
-0.19557075 0.001509015 -0.049728803 -0.020873794 0.037161827 -0.02955488 0.012193031 0.015641397
0.026692696 0.083212584 0.045595944 -0.13188107 0.017032867 -0.025234519 0.08238502 0.10607107
0.25756946 -0.012354696 -0.10816743 0.012078003 0.07786204 -0.13623507 -0.05398656 0.16927804
-0.13479613 0.018201515 0.11611283 -0.12607212 0.045811787 0.079164304 0.1909811 0.003630509
0.13265541 0.18637119 0.025357943 -0.025045222 -0.07494921 -0.1578729 -0.0521684 -0.1612332
-0.14343378 -0.14544158 0.046941634 -0.11134796 -0.055243153 -0.16293308 0.0174443 -0.123446755
0.099936925 -0.15969922 -0.06925189 -0.06591681 0.13182327 -0.0062729837 -0.025018461 0.04441592
0.0449535 -0.17605287 -0.08619912 0.13933542 0.035333376 0.13019875 -0.02576123 -0.1153937
0.01809269 -0.08937211 -0.07835195 -0.20989631 0.11670353 -0.010289675 0.0218491 -0.43441123
-0.016468966 0.013561666 0.061282206 0.049887463 -0.017049065 -0.2841827 -0.14908808 -0.14085631
0.11402554 0.054333173 -0.031259485 0.19308501 -0.0073211915 0.06932151 0.0011297866 -0.1961627
0.122933544 0.13280906 0.111646034 -0.07267579 -0.30356398 0.14474273 0.121553585 -0.20462964
0.0039324644 0.034710698 0.07558581 -0.2043197 -0.07470042 0.044416558 0.10052918 -0.19049115
-0.037348215 -0.14674395 -0.10368476 0.18450186 -0.16648036 0.19468161 -0.042053536 0.027349807
-0.28289312 0.045234405 0.10798718 -0.00868673 0.0116070425 -0.01052574 0.034797963 0.21936552
-0.045555674 0.02184798 0.06973171 -0.2755899 -0.005279304 -0.268606 0.0043620584 -0.09306991
-0.11880414 0.035866536 0.10075342 -0.15771346 0.19143587 -0.12864771 0.023083745 0.17620078
0.08230791 0.018552236 0.087015666 0.1415143 0.041415684 0.06837725 0.026607046 -0.08988753
0.122096404 -0.059266146 0.012852571 0.053733524 0.065014906 -0.20013423 -0.024728952 -0.034991644
-0.026246432 0.15620214 -0.025379548 0.012243186 0.09084521 0.15502553 -0.037951633 0.0072395466
0.020042652 0.033653535 0.15192132 -0.14625254 0.005665498 0.036209457 -0.046139363 0.14166157
-0.09292585 0.062548935 0.11469154 -0.16242248 0.13076462 0.036722176 -0.14975092 0.020860331
-0.11329305 -0.0018837999 0.08330625 -0.22226208 0.030192265 0.011724599 -0.007387625 0.009339815
-0.118282594 0.049334064 -0.042590927 -0.021558426 -0.088781856 -0.20441067 0.03803764 -0.17429668
00000000: 3458 eebd 09ca be3c 21b1 fcbc 5261 44be
00000010: b9ce 33bc 96aa 8d3b 73b8 103e b119 d53d
00000020: 97f4 253e c75a d1bd 8f22 a1bd 1230 d83c
00000030: c608 1b3e e879 6a3d 1bbd b13c b354 213d
00000040: 76f6 9abe 9c29 8dbd 1862 953d 03bd 9a3c
00000050: 95ef 81be 8c71 023e fd3e 8f3d daef 55bd
00000060: b955 1e3d 7b4c a93d 891b 4d3a 51ed 9abc
00000070: b95f 54bd 2f39 b93d 6844 62bd a6cd 2e3d
00000080: d25d 863b 5fab 33be 18b2 403e 08eb 29bd
00000090: 9a6f 583e 5c1b b8bd 24b0 833d b3a3 6b3e
000000a0: 1f24 5f3c 721c 1cbe 0205 603c 9888 973c
000000b0: e72b 58be 5017 54be 6dc8 443e 4eab 6abd
000000c0: c4ae da3d 4da9 673e 56fa dbbd 08fe ce3d
000000d0: 403e 10be e052 823d 36f0 1f3e e718 6c3c
000000e0: f4fe 943d 31c6 e53d 026a 77be da94 5d3d
000000f0: bd7b 033d b22f 0dbe 09ac be3c 6b3b 05be
00000100: b343 48be 24ca c53a 6eb0 4bbd 85ff aabc
00000110: 0037 183d 131d f2bc 47c5 473c 6322 803c
00000120: a4aa da3c 5c6b aa3d d0c2 3a3d d50b 07be
00000130: 8388 8b3c 9fb8 cebc 7ab9 a83d ca3b d93d
00000140: 25e0 833e 5a6b 4abc e386 ddbd d1e2 453c
00000150: 2276 9f3d 3581 0bbe 0321 5dbd 3957 2d3e
00000160: ff07 0abe 581b 953c 90cc ed3d 0d19 01be
00000170: 24a5 3b3d e520 a23d 8d90 433e d5ed 6d3b
00000180: d2d6 073e 17d8 3e3e 76bb cf3c a32b cdbc
00000190: f97e 99bd 6fa9 21be 88ae 55bd 511a 25be
000001a0: 4ee0 12be a3ee 14be df45 403d 660a e4bd
000001b0: a546 62bd eed7 26be 59e7 8e3c a7d1 fcbd
000001c0: bbab cc3d 3188 23be efd3 8dbd 64ff 86bd
000001d0: aefc 063e 9a8d cdbb 84f3 ccbc 78ed 353d
000001e0: 2921 383d 3447 34be 2a89 b0bd f2ad 0e3e
000001f0: bbb9 103d d252 053e 3709 d3bc 8853 ecbd
00000200: 1f37 943c ba08 b7bd fd76 a0bd 0fef 56be
00000210: 4302 ef3d 0696 28bc e2fc b23c 266b debe
00000220: ede9 86bc c031 5e3c 0d03 7b3d cc56 4c3d
00000230: 7baa 8bbc 6580 91be 8caa 18be a33c 10be
00000240: 3986 e93d 768c 5e3d f209 00bd 14b8 453e
00000250: 9be6 efbb 70f8 8d3d 5915 943a e0de 48be
00000260: 95c4 fb3d 19ff 073e ada6 e43d 0bd7 94bd
00000270: bd6c 9bbe 7037 143e 16f1 f83d 6f8a 51be
00000280: e7db 803b ce2c 0e3d bccc 9a3d 2f39 51be
00000290: 89fc 98bd 23ee 353d 3ee2 cd3d 1d10 43be
000002a0: 71fa 18bd 0c44 16be ad58 d4bd 0eee 3c3e
000002b0: d479 2abe 9e5a 473e 5440 2cbd b40c e03c
000002c0: 5ed7 90be b647 393d 6228 dd3d c952 0ebc
000002d0: 772b 3e3c 2774 2cbc 4f88 0e3d 5ba1 603e
000002e0: 9698 3abd 89fa b23c 80cf 8e3d 1f1a 8dbe
000002f0: 03fe acbb ba86 89be 99ef 8e3b 709b bebd
00000300: 964f f3bd cae8 123d cf57 ce3d a37f 21be
00000310: c407 443e 3abc 03be 1f1a bd3c fa6d 343e
00000320: 0d91 a83d dcfa 973c 4535 b23d 20e9 103e
00000330: 7ea3 293d 5f09 8c3d 05f7 d93c f416 b8bd
00000340: ae0d fa3d 0fc1 72bd 9793 523c af17 5c3d
00000350: 8926 853d fdef 4cbe 5f94 cabc 6653 0fbd
00000360: c202 d7bc 74f3 1f3e c5e8 cfbc a597 483c
00000370: 0e0d ba3d 03bf 1e3e 2c73 1bbd b839 ed3b
00000380: 7d30 a43c 4ad8 093d 4391 1b3e 3ac3 15be
00000390: a4a5 b93b 5e50 143d a1fc 3cbd bb0f 113e
000003a0: e84f bebd a819 803d 66e3 ea3d 1452 26be
000003b0: 29e7 053e fe69 163d 4e58 19be 49e3 aa3c
000003c0: 3006 e8bd d6e9 f6ba 789c aa3d ac98 63be
000003d0: c555 f73c 8818 403c e413 f2bb 0606 193c
000003e0: 253e f2bd 8412 4a3d d373 2ebd 4c9b b0bc
000003f0: 43d3 b5bd 0851 51be 5bcd 1b3d d47a 32be

output.bias f4 [4]
0.27240852 0.24793242 0.18281353 0.20005794
00000000: 2179 8b3e ffe1 7d3e 7833 3b3e fddb 4c3e
