2. Value-Based Methods/L2 dqn/checkpoint.pth (torch_old, 70787 bytes, 8 tensors)

fc1.weight f4 [64, 8]
00000000: eb32 7cbd 3947 0fbc ea75 55bf 6c10 afbf
00000010: 609d 0e3d d120 ed3c abcc 8a3b 3948 293e
00000020: fe24 733e 3347 c7be 48a5 9c3e 1392 18bf
00000030: 44bc 18bf 9a02 44bf 3a0f 06bf 4f80 903e
00000040: ea79 c73e 4fed f43d f1e1 1abe 1e5e 07bf
00000050: e66c ed3e b85d cb3e 5a26 cd3d e571 823e
00000060: 778d d3be 0949 3cbe bdfe c63e 3305 b5be
00000070: 3d61 5bbe 5026 ecbe 040c 69be 2b3a 053e
00000080: 6a20 90be 273b 91bf a83d c7be c2fc 6bbf
00000090: 100b 45be 6cdc 273e 1490 973e aba0 b93e
000000a0: 0930 23be 3025 0bc0 c71e fbbe ae4a 1dbf
000000b0: fd59 943e b239 ffbd c732 213e b7f9 533e
000000c0: 90f0 3fbf 7a46 7e3e 0f0d b03d d2e8 8e3f
000000d0: 289a b23e b116 273e 1834 b83e 0944 adbd
000000e0: 655b b83e 2662 dfbf 6aa6 acbe 01e7 05be
000000f0: 7891 cd3e c10d 823e 3c8a 4cbe 39ee 8d3e
00000100: 7cb0 7b3e a321 973d d17c 593f 70c1 0dbe
00000110: a4d3 94be 7592 723f 616d ebbc 398f aebd
00000120: b3de 81bd 3460 fb3e 0188 b33e 1223 6a3f
00000130: 2932 dfbe dd8a 0dbf fe95 483e 982d 343d
00000140: d402 cabe cf9f 483f 9055 ed3e eb99 a4be
00000150: 9646 26bf 7542 a1be 4b92 a63d 80d6 eabe
00000160: bdc7 273f e7d0 333d b235 863f c413 b1bd
00000170: 7487 823d a055 a23e 0868 8abe ea33 91be
00000180: 15ce 2dbd 776c db3e c18a 593f 22b5 4abe
00000190: e099 02bf 9302 823f 26aa a3bc d120 b63e
000001a0: 2c0b 57bf 1ece 8abf 72a6 0dbf 940e 6fbf
000001b0: d05f e8be eb24 893d 6c33 49be d5e8 993e
000001c0: 8af8 b6be 9467 bf3e 66ae af3d 63d1 2cbf
000001d0: 7456 3bbf e70b dcbd 01cf 9e3d e963 99bb
000001e0: 8a43 4c3e da42 07be b3f9 32be a6c4 1dbe
000001f0: 19f6 b33e 1a33 13bf a75e 35bf 5d1d 4dbe
00000200: 9890 b9bb 979b d9be 6d8a 30bd cdf4 7abe
00000210: 7c71 3cbf f31c 92be 35a0 c73e f0a2 113d
00000220: 4511 3e3e 5c8c 1a3d f28f f73e 1e31 263f
00000230: 8c59 0c3e caf3 273e 0055 203f f04a 063d
00000240: 53a2 4cbe 80c1 e83d a1b1 8c3e 81ce f13e
00000250: ab8e faba b544 28bf 5a1b 01bf 4a1c febe
00000260: 79f8 f5be 1285 f13e 2c0a 5f3e e2e8 40bf
00000270: be45 fd3e 981b 54be a6ca 5cbc 93e5 51be
00000280: 027a bfbe 02d8 92bf d597 44be 1436 1dbf
00000290: 4af0 8dbe ea96 a0be 29bd 683d 33fc 273e
000002a0: b046 50bf f888 0ebf c699 313f 16a2 09bf
000002b0: 2481 fe3e 8f15 a83e 13aa 063d 93d5 e93e
000002c0: 32c3 d6bd edea 76bf 238a a13e a6f5 64bf
000002d0: 44d6 a9bd eb96 85be bd20 a53e 383c ff3d
000002e0: f335 4c3f a9bc a73b 5d3e ffbe 89f7 1bbf
000002f0: 5d4b 5fbf b915 2fbe da1c 1f3e 90bd 2e3e
00000300: 4e06 483e 9cad 85bc cf72 5ebf cff0 043e
00000310: c516 99bf cf38 90be 51e8 a93d d09f 05be
00000320: 4a86 b0be 9ca7 28bb 5dd5 afbd fedd 05bf
00000330: 9d83 76bf 4a8c cf3e 5d61 a5bd 8bbf ee3e
00000340: 59df d9bd ea50 3abe d67a c73e 5b3a 20bf
00000350: 7850 08bf d516 d2be d9fa 683e ae70 8c3d
00000360: 94e5 04bf 4996 edbf d1aa 183f 8932 47bf
00000370: e595 00be 301e 5f3e b52e a63d d79b b13d
00000380: c50b 7bbf cb54 413e d151 f8be 5311 e4bd
00000390: 54cc 843d 3483 bbbe 7951 09bf ea3f 8f3e
000003a0: a4bd ca3c 7026 1d3f 4fc4 113f bf98 47be
000003b0: 8e91 963f 1c4c 043e e531 3dbd acc7 763e
000003c0: 2e52 31bc 2711 84bc dd52 403b 0fc6 11bc
000003d0: fcd4 aa3f 1ae7 48be 2a14 b93e 41af fdbe
000003e0: eddd fabe 6011 1ebf 8132 c2be ca96 bb3e
000003f0: 790c 79bd 4811 d0be 9c17 793e e582 06bf
-0.061571997 -0.008745008 -0.8338305 -1.3676887 0.034818053 0.028946312 0.004235824 0.16531457
0.2374458 -0.38921508 0.3059485 -0.5959789 -0.5966227 -0.7656647 -0.52366984 0.28222892
0.389602 0.119593255 -0.15125252 -0.52877986 0.46372145 0.3971994 0.100170806 0.2547752
-0.41318867 -0.18387236 0.38866225 -0.3535553 -0.21423812 -0.4612298 -0.2275849 0.1301047
-0.2814973 -1.1346177 -0.38914227 -0.9218255 -0.19242501 0.16392678 0.2960211 0.36255392
-0.15936293 -2.1741447 -0.4904692 -0.6144208 0.28974906 -0.124621764 0.15742026 0.20700727
-0.74976444 0.24831572 0.08596241 1.1164801 0.34883237 0.1631725 0.35977244 -0.08460242
0.36007228 -1.7451828 -0.33720714 -0.13076402 0.40150046 0.25401118 -0.19974607 0.27720812
0.24579042 0.073794626 0.8495608 -0.13843322 -0.2906772 0.94754726 -0.02873868 -0.08523411
-0.06341305 0.49096835 0.350647 0.91459763 -0.43592957 -0.55290014 0.19588467 0.043988794
-0.39455283 0.7836885 0.46354342 -0.3214868 -0.64951456 -0.31496015 0.08133372 -0.45866776
0.6553915 0.043900397 1.0485137 -0.08646348 0.06373492 0.31705952 -0.27032495 -0.2835992
-0.042432863 0.4285619 0.84977347 -0.19795659 -0.51016045 1.0157036 -0.019978594 0.35571912
-0.8400142 -1.0844152 -0.553321 -0.9338162 -0.453856 0.06696495 -0.19648522 0.3006045
-0.35736495 0.3738371 0.08578186 -0.67507 -0.7317879 -0.10744458 0.077543266 -0.0046810997
0.19947639 -0.13209096 -0.17478065 -0.15407047 0.35148695 -0.5749985 -0.70847553 -0.20030732
-0.005662989 -0.42501518 -0.043100763 -0.24507447 -0.73610663 -0.28537712 0.38989416 0.03555578
0.18561275 0.037731513 0.4835201 0.64918697 0.13706034 0.16401592 0.626297 0.03278631
-0.19983797 0.11365032 0.2747927 0.47227862 -0.0019116005 -0.6572984 -0.5043236 -0.49630958
-0.48041132 0.47171837 0.21781224 -0.7535535 0.49467272 -0.20713651 -0.0134760495 -0.20497732
-0.37397772 -1.147217 -0.19198544 -0.6141064 -0.27722389 -0.31365138 0.056821022 0.164048
-0.8135786 -0.5567775 0.69375265 -0.5376295 0.497079 0.32828948 0.03287704 0.45670757
-0.10486449 -0.9645222 0.31550702 -0.8943733 -0.08292821 -0.26091704 0.3225154 0.12462658
0.7976982 0.0051189256 -0.49852267 -0.60924584 -0.8722437 -0.1709813 0.1553835 0.170645
0.19533655 -0.016318135 -0.86893934 0.12982486 -1.1960074 -0.28168342 0.08296264 -0.13049245
-0.34477454 -0.0025734669 -0.08585618 -0.5229186 -0.96294576 0.4053672 -0.08075211 0.4663051
-0.10638303 -0.18194929 0.38960904 -0.62589043 -0.53247786 -0.41033044 0.22751941 0.068574294
-0.5191281 -1.8561488 0.59635645 -0.77811486 -0.1255718 0.2178886 0.081143774 0.08672302
-0.98064834 0.18880002 -0.4849992 -0.11136117 0.06484285 -0.36623538 -0.5363994 0.2797845
0.02474863 0.61386776 0.5694017 -0.19491862 1.176317 0.12919658 -0.04619016 0.24099606
-0.010822816 -0.01612146 0.0029346265 -0.0088973185 1.3346248 -0.19619408 0.36148196 -0.4954777
-0.4899744 -0.6174526 -0.37929156 0.3663848 -0.06080291 -0.40638185 0.24325413 -0.5254348

fc1.bias f4 [64]
00000000: 105f d13a 5fa2 17be b41e 873c 0d6c e23c
00000010: bbd5 bebe cf80 be3e b366 c43e b0a0 b4be
00000020: 3182 533d d552 fd3d 7e91 2bbe b0b8 82be
00000030: d541 33be b9e9 2abe 953d 923e 3386 803e
00000040: 4a82 573e 8de3 9abe b29c 073f bfc6 f63e
00000050: 9b52 87be 9279 2bbe 75e0 9cbe 9a49 3ebe
00000060: 98de 48bd 97c4 a4be e199 82be 6482 b23e
00000070: 3231 8abe 92d4 08be 64ff 0c3a 4264 66bd
00000080: eab3 d0bd 70c1 cf3e ac63 fbbd 6af1 e63c
00000090: f06a fbbd 0fc0 033f 97be abbe 1a2a c7be
000000a0: 2a31 673e b07f 18bf 24ec e7bc d651 a23e
000000b0: e64c e9ba a086 793e 79a4 f93e 8f01 073e
000000c0: 8fbf 8bbe 70e6 e9ba cfb0 1ebe 63ff ac3d
000000d0: e485 65bd 6f16 023f 5a89 b6bd 0a4e c23d
000000e0: 1d64 9d3e 3990 b53d cbe4 e73d 9362 85bc
000000f0: 605d 3abd 235a 3cbe 13db 543e 8c9c d13d
0.0015973765 -0.14808033 0.016494133 0.027639413 -0.37272438 0.37207648 0.38359603 -0.35278845
0.051637832 0.123693146 -0.1675472 -0.2553153 -0.17505582 -0.1669072 0.28562608 0.25102386
0.21045795 -0.30251732 0.52973473 0.48198506 -0.2643021 -0.16745594 -0.30639997 -0.18582764
-0.049040407 -0.32181236 -0.25508025 0.34865105 -0.26990658 -0.13362339 0.00053786323 -0.056247957
-0.10190566 0.4057727 -0.1227487 0.028191287 -0.12276256 0.51464933 -0.33543846 -0.38899308
0.22577348 -0.59569836 -0.028310843 0.3170306 -0.0017799407 0.24367762 0.48758295 0.13184188
-0.27294585 -0.0017845165 -0.15497135 0.08447149 -0.05603589 0.5081548 -0.089129165 0.09487541
0.30740443 0.08865399 0.11322936 -0.016282355 -0.045499206 -0.1839376 0.20786695 0.10234937

fc2.weight f4 [128, 64]
00000000: 7c27 b7bd a42b 06bf 99b7 6e3e 1748 22be
00000010: bb7e b63e 7a12 a13d 2e03 bfbe 70db 81bd
00000020: 0d25 a83d 5352 6dbf 08b8 6fbe fa75 a13d
00000030: 7f8d c63d 677c cebe 8a89 273d 2e42 b5be
00000040: ba2a 1e3d eade 523e 96b7 50bf faa0 d2bc
00000050: fc3b 00be d9d4 523e 648a aa3e 7c6e f83d
00000060: e9b4 c8be 195d 053e 395f 96bd 3c49 c53e
00000070: d7d0 23be d53c f9be 0986 0bbf 3a13 9a3d
00000080: 0e45 373e 1dc7 fcbd 5d1c 43be a6e9 81bf
00000090: d154 7ebd 14af 84bd 309d 353d f1b6 b13d
000000a0: 9448 713e 195f 81bc 4c43 02be a563 6dbf
000000b0: 8888 09bf 3388 62bd 05ac 9abf 15a2 a8be
000000c0: 25c9 02bf 6d3e 74be 1326 04bf 7523 b2be
000000d0: 181a ebbe 24aa 253e bb7f f2bd b7fe 1f3e
000000e0: c62a 9a3d d6f2 08bf d3ff b43d 9ca7 14bd
000000f0: 4a8f 27bf 8fd7 98bd 6457 4cbe fd35 673e
00000100: df65 16bd 7a43 593e ec78 053d 4b14 233c
00000110: dc2b 17be 22d8 9d3e b21e 0fbf a0de ee3e
00000120: c989 0d3e 32fa c9be 7d01 d8bc 42b4 dc3d
00000130: 1a1f 01be 9052 58bf eb30 d93d e6df a03d
00000140: 5aad 393e dbd2 443e 71f4 36be 5eab 8f3e
00000150: 129c 503e 6323 53be 2c94 013f 3537 843e
00000160: c12d 52bf 95f1 eabd 126b a33e 99cb ae3e
00000170: ec7d b7bd 3c21 4c3e a5f1 a4be 5ecc babd
00000180: 95f8 48be 27f4 51be b84d 64bf b31d bdbe
00000190: aa56 ddbe 22ba 723e ca4f af3d 2720 b13e
000001a0: 519d 6dbd 7924 f73c 3a76 dabd ee85 55bf
000001b0: a39b 70be 1533 ca3d 0767 81bf 8ae6 5abe
000001c0: fff0 9c3d b306 0dbe b78a e9be 3f7c e9be
000001d0: e651 a53e 1cd8 023f 3fc7 053f 4fcf 34bf
000001e0: ee6b 933e 770c d6bc 53dc 4a3e 83bc 7f3e
000001f0: a250 5abf 95c0 e3be 06dc a6bd 0e11 b03e
00000200: 364e 893e 1128 b53e 2d88 34be f1c4 953e
00000210: 817f e53e 9ee0 b03e 310a 1fbf 0363 9fbe
00000220: f7c2 94be bfe7 97be ecd3 89bf 1fc6 82bf
00000230: 48f9 04bf 1282 e93e f76f 973e ef1c ff3d
00000240: 8e3d 083f 1b1a 58bf c5c6 f4bd 89b8 40bd
00000250: ba7b 743e abe5 463e 5a2b 323f 03ef 603e
00000260: 021f c83e 30c3 4ebc c08e 033f 08fc 003f
00000270: 2257 f93d 17ae 0fbf cd46 aebe 6974 ec3e
00000280: 126b 8f3e 829d 80bf 4d69 113d 5806 d2bf
00000290: 7e84 b93e a229 5cbc ccf7 ca3d 0072 8bbe
000002a0: 5b52 1f3d 9aff 0e3e 2cbd 6cbd b1c5 bfbe
000002b0: e52e c4be deaa 523d 45f8 a7be 93ff 3cbf
000002c0: 9888 9b3e 8947 1a3d 0583 febe b9ae b1be
000002d0: 851d c33d 1cda a63e 9907 a73d 7f84 3bbd
000002e0: 1603 0d3d 8f04 35be fb90 84bd 06c9 ef3e
000002f0: 90ed cdbd bbd5 193e 1cbb 963e 259f 393e
00000300: 5409 04be 312a 54bd 05be 103c 40fb 15be
00000310: e01a 0f3d 330e 303d 00dc 523d 5e6e c6bd
00000320: 8501 c03d 672c b8bd b222 be3d b3d9 04be
00000330: ef66 02be 5233 303d 7ea5 9cbc a04b ec3b
00000340: 2749 c2bd 0be4 9fbd 90d0 8abd 8a48 15be
00000350: 1d52 94bc 749c 1ebc 0892 b5bc 07d4 fe3b
00000360: f2d4 ae3d fdae 833c d86d 3bbd f7a6 acbd
00000370: 5c50 debd 52bc c1bd 7dfa cdbc 4d84 4bbd
00000380: ee0c ba3c 1240 aebd a502 973d faaa f8bd
00000390: 2084 fbbc ae10 9d3d 0690 fe3d 884a 94bd
000003a0: 34b7 1dbc bc44 03bb de61 98bd b3bc 93bd
000003b0: 7149 053c 2068 efbd beee 53bc 188e 5d3d
000003c0: 90c3 49bd 64dc a13d a0c7 06bc da37 263d
000003d0: b884 fd3d a689 92bd 0ed8 803d 9b46 7bbd
000003e0: 77ad 19bd 9e16 15bd 0464 0abd 4cbd 83bd
000003f0: 77cb acbb ebcc 36bc a680 5b3d b6ac 0fbd
-0.08943078 -0.5241034 0.23312224 -0.15847813 0.35643563 0.07864852 -0.37307113 -0.063406825
0.08210192 -0.9270374 -0.23410046 0.0788383 0.09694957 -0.40329286 0.04090265 -0.35402054
0.038614966 0.20592847 -0.8153013 -0.025711525 -0.12522882 0.20589007 0.3330871 0.12130448
-0.39200523 0.13023795 -0.07342381 0.38532436 -0.15997635 -0.48679224 -0.54501396 0.075231984
0.17897436 -0.12342665 -0.19053788 -1.0149429 -0.062092606 -0.06478706 0.04433936 0.086774714
0.23562843 -0.015792416 -0.12720984 -0.9273017 -0.53723955 -0.05530567 -1.2083746 -0.3293616
-0.5108817 -0.23851939 -0.51620597 -0.34792677 -0.45918345 0.16178185 -0.11840769 0.1562451
0.0752769 -0.5349554 0.08837857 -0.036292657 -0.65453017 -0.074629895 -0.19955212 0.22579189
-0.036718246 0.21217147 0.032586023 0.009953569 -0.14762825 0.3082896 -0.5590621 0.46654224
0.13822092 -0.39448696 -0.026367897 0.10776569 -0.1260952 -0.8450098 0.106050335 0.07855205
0.18132535 0.1922106 -0.17866684 0.2806043 0.20372036 -0.20618968 0.5061672 0.2582337
-0.82101065 -0.11471859 0.31917626 0.34139708 -0.089595646 0.19934553 -0.3221561 -0.09121011
-0.19626077 -0.20503293 -0.8918109 -0.3693672 -0.43230182 0.23703817 0.085601404 0.34594843
-0.058011357 0.030168759 -0.10667081 -0.83407485 -0.2349687 0.098730244 -1.0109566 -0.21377006
0.07663154 -0.13772087 -0.45613644 -0.45602605 0.32289046 0.51111007 0.5225715 -0.7062883
0.2879328 -0.02612899 0.1981061 0.24974255 -0.85279286 -0.44482866 -0.08147435 0.34388012
0.26817483 0.3538213 -0.17630072 0.29251817 0.4482384 0.3454637 -0.62124926 -0.31130227
-0.29054996 -0.29668996 -1.0767798 -1.0216712 -0.51942873 0.45607048 0.2957761 0.124566905
0.53218925 -0.84414834 -0.11951975 -0.047050986 0.23875323 0.19423549 0.695974 0.21966176
0.39086157 -0.0126197785 0.51389694 0.5038457 0.121748224 -0.56125015 -0.34038392 0.46182564
0.28011376 -1.0048068 0.035500813 -1.6408186 0.36233896 -0.01343766 0.09910545 -0.27235413
0.0388969 0.13964692 -0.057797596 -0.37455514 -0.38317028 0.051432483 -0.32806602 -0.73827475
0.3037765 0.037665877 -0.49709335 -0.34703615 0.09527115 0.3258828 0.08155746 -0.045780655
0.03442677 -0.1767752 -0.06472965 0.46833056 -0.10055077 0.15022938 0.29439628 0.18127115
-0.12894183 -0.05179805 0.008834367 -0.14646626 0.03493774 0.04298229 0.05147934 -0.096890196
0.0937529 -0.08992844 0.09283961 -0.1297367 -0.12734579 0.043017693 -0.019121882 0.0072111636
-0.09486609 -0.078071676 -0.067780614 -0.14578453 -0.01810556 -0.009680856 -0.02216436 0.0077767405
0.0853671 0.016074652 -0.045759052 -0.084302835 -0.10855171 -0.094597474 -0.025143856 -0.04968672
0.022711243 -0.08508314 0.07373551 -0.12141986 -0.03070265 0.07669197 0.12429814 -0.07240778
-0.009626199 -0.0020029983 -0.07440542 -0.07213726 0.008135186 -0.11689782 -0.012935339 0.05409059
-0.04925877 0.07903364 -0.008226305 0.040580608 0.1237883 -0.071551606 0.06291209 -0.06134663
-0.037518945 -0.036398523 -0.03378679 -0.0643259 -0.0052732783 -0.011157255 0.053589486 -0.03507682

fc2.bias f4 [128]
00000000: 17b7 763c 33e5 8e3d f175 ad3c 7b8d abbd
00000010: 51a0 0c3f ef10 8ebd 11f9 193e 102b 6cbe
00000020: 8910 033f 1668 fdbd 9095 543d 0928 adbd
00000030: 2546 1b3e fe96 e2bd cc2b d33c 60a9 32bd
00000040: 36a8 d5bd a71d 913d 531e 853e 6c72 233d
00000050: 0cc8 8dbe 9a03 51be e46c 88bd 499a 253d
00000060: 4a07 10bd 0af3 003e 2b1f f5bc 6325 e23c
00000070: 707a e2bd 9a05 02be 1362 92be 1d5a cbbd
00000080: a26e 8f3e 4b91 84be dbb3 103f 15ef 2b3d
00000090: de7a 023e 25c8 113d 0568 9a3e 9d8e 2d3e
000000a0: 4a39 25be a0ed 873d 399d 8abe 6640 37bd
000000b0: 5059 063e d44c 053f a2fc 16be 278f 233d
000000c0: 149a 81be c8ca 42bd 7b35 b2bd 327b babd
000000d0: 5856 b2bd 31e1 fbbd 37c4 4fbd a1eb c23e
000000e0: 75d2 993d e4cb ffbd 5ed0 6e3d 2ca7 f2bd
000000f0: d551 17bd 19fc 1bbe b739 a8bd 9192 bcbe
00000100: 7c16 623e cab5 39bc 9e60 72bc 5e06 9dbd
00000110: 76b3 8e3e fe8b 833b bf83 2d3d 1ee6 b5bd
00000120: 061e bdbd a5f2 1d3e 6535 e93d 856d 0e3f
00000130: 5133 d73e 8a80 30be b266 d23d 3d8e 91bc
00000140: 2080 18be b2b6 7a3c 2c0b c2bd c76c 573d
00000150: 974c 183e 7beb da3c 876e 4fbe 63a2 dabd
00000160: 21a1 453e ca62 38be 11cb 9bbc 0b53 b7bd
00000170: a23d 97bd 6682 233f 976c ac3d 6bba 4ebe
00000180: 31fd b9bc 1ebc 4dbd 41df df3e 96ed b6bd
00000190: 0e67 463d 0ba5 813d 55a7 193e c03b 00bd
000001a0: 9b08 f33c c502 35bd 915a b73d 7bc9 0e3e
000001b0: 787a 52bd 060b c43e a387 ebbb dcda 81bd
000001c0: 5d12 debe 9b77 913e a0e8 11be 8cb9 3abd
000001d0: 3dd7 cf3e 8582 9d3b 6c0d 933d c971 e9bc
000001e0: cff0 89be 49a3 58be d028 54be f960 35bd
000001f0: c313 96bc bc60 56be fc04 6bbd 1ef2 10be
0.0150583 0.0697731 0.021174403 -0.08376595 0.54932123 -0.069368236 0.15036418 -0.23063302
0.51197106 -0.123733684 0.051900446 -0.08454902 0.15163477 -0.11063956 0.02577772 -0.04361856
-0.10432474 0.07085734 0.25999698 0.039904043 -0.27691686 -0.2041153 -0.06661394 0.04043034
-0.0351632 0.12592712 -0.029922089 0.027605718 -0.11058509 -0.1269745 -0.2859045 -0.09929297
0.28014094 -0.258921 0.5652444 0.041976053 0.12742183 0.035591263 0.30157486 0.16948934
-0.16135135 0.0663712 -0.27073076 -0.04473915 0.13120008 0.52070355 -0.1474481 0.039931443
-0.25312865 -0.04755667 -0.08701607 -0.09105529 -0.08707875 -0.12298811 -0.050724234 0.38070396
0.075108446 -0.12490061 0.058304183 -0.11848292 -0.036943275 -0.15232886 -0.08214133 -0.3683057
0.2207889 -0.011334846 -0.014793543 -0.0766723 0.27871293 0.004014491 0.04236197 -0.08881782
-0.09234242 0.15424593 0.11387137 0.55635864 0.4203134 -0.17236534 0.10273494 -0.01776802
-0.14892626 0.015302347 -0.09474787 0.052593973 0.14872967 0.026723614 -0.20257007 -0.10675504
0.19299747 -0.18006435 -0.019017728 -0.08951386 -0.073848024 0.6387085 0.08419149 -0.201883
-0.022703739 -0.05022823 0.43725017 -0.08932035 0.048438124 0.063303076 0.15005238 -0.031306982
0.02966719 -0.044192094 0.08952821 0.13944046 -0.051386327 0.3828966 -0.0071878 -0.06340572
-0.43373385 0.28411564 -0.14248896 -0.045587108 0.405939 0.004806819 0.071802944 -0.02849664
-0.26941535 -0.21156038 -0.20718694 -0.044281933 -0.01831997 -0.20935339 -0.0573778 -0.1415486

fc3.weight f4 [64, 128]
00000000: 0def 293e 7d3b 8a3e ba8e a6be d70b 06bd
00000010: ba42 413e b735 a43e 4eab 0c3f 89c2 673d
00000020: 4208 6dbc 0790 ddbd c4c9 eb3c eacf d03c
00000030: 9ea8 abbd 9fd6 18bd cc9b 0fbf ac11 923e
00000040: f261 40bd e534 c03a 0188 c33e 3226 afbe
00000050: 9d84 c5be 1d8d 483e 7e94 d23d 7e09 d33e
00000060: b9f8 24bd fad5 6c3b b253 d23e a41b ab3d
00000070: 0606 463c 399d 093e 1885 f13d cc53 de3b
00000080: 3d4a 5d3e b59e a93e f6b2 5e3e 7855 65bd
00000090: 66ef cd3d 7fd2 293e 29fe 523e 1e29 37bf
000000a0: 4b38 01be a9ee 29bd dd54 ba3d b882 093e
000000b0: a3f6 acbc fee6 0dbf 3856 c5bd 6670 613e
000000c0: 4aa1 6b3e 1b71 8a3e 4768 bf3e 33f1 ca3e
000000d0: 469d dabe cda9 623e 5268 993d 6aaf e33d
000000e0: 16e6 0b3e b7fa 523d 4ed8 9fbe 5593 7b3d
000000f0: 4e57 ad3e 355c 96be 5ccb 08bf 8877 963d
00000100: 83c6 d13e c993 36bf 5f13 7fbe 526a 72bd
00000110: bb44 db3e 6bc1 953d a21d 19be d079 29bd
00000120: f162 ee3e 5651 30bf 900a 073f f736 5f3e
00000130: f636 cf3d 57bd 683e 207e 8fbd ee52 443d
00000140: b64a 613c b40d 13be ea9c 373e fbce 93be
00000150: f037 763e 1d41 843e 4d81 1a3e 92c1 f4bc
00000160: 173d 2ebd 1664 dbbe ab91 103e c97d 05bf
00000170: d571 f3bd a1e2 4d3f f912 ab3e f9f7 823e
00000180: 5f20 273e 8f48 9d3d 7d51 1c3e 870b 88bf
00000190: 4e1e 8e3e 75af c13d 7349 db3d 2fde 26be
000001a0: 4de3 39bd 7ac9 a63d c790 893d f82c 013e
000001b0: 1f65 3a3d 6e96 963e 302a 72be f19e 5b3d
000001c0: 109f ccbe 558b cabe d186 8cbd 4242 06bf
000001d0: a6cb 993d 2059 ac3b be1b b63d 49d3 1f3c
000001e0: bb19 aabd 726a dfbc a136 a03e 770d 3f3e
000001f0: c843 b03e 2ee2 02bf d066 83be f35b 69bc
00000200: f539 35bd e39e 80bd 0db9 2d3d cfc9 343d
00000210: cfee 9c3d cc18 2d3e 4a3c a13e bce2 a8bd
00000220: e526 33be 9c00 a43c 5070 0c3e b00b f53b
00000230: f847 903e 9ddc f13c 5144 a7bf b2b0 35be
00000240: afcc cdbe f71d d4bf 0dfc 4d3f 346e 88bf
00000250: 60ea 39be 6b1b 90bf b7fd 013e 3205 1dbe
00000260: a075 6bbe c290 0bbe 690c f2bc faf0 c2bd
00000270: 1d02 a83c 5e2a 6a3f 26d2 0ebe 5bb8 3dbe
00000280: 60fb 0e3e a849 da3e c369 1b3e b9e4 713d
00000290: 19d5 cdbe 66f1 fdbc 7dd0 353e 4def 9bbf
000002a0: 2cc0 573c 2d3a f43e aaa4 80be 94c7 9bbd
000002b0: aad9 5b3f 98cc 9bbe 21a3 a13c 10c7 a3bd
000002c0: 9f4e d8bd 5a96 4c3e 1a35 9e3e a75d 2a3e
000002d0: d9d2 46bf eceb 49be b1cd 26be 02dd 763e
000002e0: 8d0e a03e 7cce d539 7300 fcbd 49bf be3c
000002f0: 3add 7c3e 00d3 96be c76a bfbe f129 c0bd
00000300: 41d7 3fbf e98a 7dbd 0535 6ebf ae4c 203d
00000310: c44a d13e f34c 4bbd d770 d9bf 777b 043e
00000320: 4523 b6bd d727 36bf 70ec bb3e fa38 413d
00000330: 441e b33e 7bae 05bf dfda 1dbf d5ac 84be
00000340: 9bc3 7e3d bb3e afbe ac58 86bd f64a 13bf
00000350: 04e2 f03d 932e 30be f301 04bf 44b1 893c
00000360: 46d1 e5be 149f ce3d 8b74 b53c 2a7b cfbe
00000370: c28f 46be dcfc db3e f765 e13e 8e41 aabe
00000380: cba0 8d3e 3e27 e5be 8fc1 d63e 254a 1abe
00000390: 6217 983e 3e3c d03d 7611 a03e 34af 16bf
000003a0: 61fa 42be 91ab e0be 8def 693e 885f 8c3e
000003b0: 2780 203e 66d9 c93d 3c88 81be 23bd 8c3d
000003c0: c899 f53d b176 acbf 93aa 53bc adba 24bf
000003d0: de3d 893e eb19 b13e dfe3 c43e cd7e 833d
000003e0: 4a7a 55bf 84cf 2fbd c270 54be 671d 893e
000003f0: abb5 4a3f f786 2e3e 7eda 383e 9547 2d3f
0.16595097 0.2699851 -0.32530767 -0.032726135 0.1887311 0.3207223 0.5494889 0.056582008
-0.014467301 -0.10818487 0.028782733 0.025489766 -0.083817706 -0.037314054 -0.560971 0.28529108
-0.046968408 0.0014664201 0.381897 -0.34208828 -0.38577738 0.1958508 0.10282229 0.4121818
-0.040276263 0.0036138282 0.4107948 0.083548814 0.012086397 0.13438882 0.11792964 0.0067848917
0.21610351 0.33128896 0.21747956 -0.055989712 0.10055427 0.16584204 0.20604767 -0.71547115
-0.1261913 -0.04148737 0.09098218 0.13428771 -0.0211137 -0.5543059 -0.096355855 0.22015533
0.23010746 0.27039418 0.37384245 0.39637145 -0.42698115 0.22135086 0.07490601 0.11117442
0.1366199 0.05150863 -0.31219715 0.061419804 0.3385567 -0.29367223 -0.534353 0.073470175
0.40971765 -0.7131925 -0.24909733 -0.059183426 0.42825875 0.07312282 -0.1495271 -0.041375935
0.4655986 -0.6887411 0.5275049 0.21798311 0.10117905 0.22728477 -0.07006478 0.04793065
0.013750723 -0.14360696 0.17930952 -0.2886885 0.24044776 0.25830927 0.15088387 -0.029877458
-0.04253873 -0.42849797 0.14118068 -0.5214506 -0.11886946 0.80423933 0.33412912 0.25579813
0.16320942 0.07679855 0.1526546 -1.0628518 0.27757496 0.09457294 0.10707369 -0.16295694
-0.045382787 0.08143897 0.06717067 0.1261481 0.045506593 0.29411644 -0.23648906 0.053618375
-0.39965105 -0.39559427 -0.06861652 -0.5244485 0.07509546 0.005259648 0.0889201 0.009754964
-0.08305689 -0.027272437 0.3129168 0.1865748 0.34426713 -0.5112637 -0.25664377 -0.014243114
-0.044244725 -0.06280305 0.042412806 0.044137772 0.076627366 0.1690399 0.3149131 -0.08246371
-0.17495306 0.020019822 0.13714719 0.0074782 0.28179908 0.029524142 -1.3067724 -0.17743185
-0.40195224 -1.6571645 0.80462724 -1.0658631 -0.18155813 -1.1258367 0.12694441 -0.15334013
-0.22994089 -0.1362944 -0.029546933 -0.09518619 0.02050882 0.914709 -0.13947353 -0.18527357
0.1396308 0.4263432 0.15177064 0.059056018 -0.40201643 -0.030998897 0.17755313 -1.2182404
0.013168376 0.47700635 -0.2512563 -0.07606426 0.85879004 -0.3042953 0.019731106 -0.079969525
-0.10561871 0.1997923 0.30899888 0.16637288 -0.7766548 -0.19718903 -0.16289403 0.24107745
0.312611 0.0004078037 -0.12304773 0.023284571 0.24693766 -0.29457855 -0.37386152 -0.09383
-0.74937826 -0.061900053 -0.9304965 0.039135627 0.40877354 -0.04963393 -1.6987561 0.12937723
-0.08893446 -0.7115454 0.36703825 0.047173478 0.34984028 -0.5221936 -0.61662096 -0.2591311
0.062198263 -0.34227547 -0.065598816 -0.57536256 0.11761859 -0.17205267 -0.51565474 0.01680816
-0.44886225 0.100889355 0.022150299 -0.40523654 -0.19390777 0.42966354 0.44023106 -0.3325314
0.27661738 -0.44756502 0.41944548 -0.15067346 0.2970534 0.1016774 0.31263322 -0.5886109
-0.19040824 -0.43880895 0.22845288 0.27416635 0.15673886 0.098559186 -0.2529925 0.068720125
0.11992222 -1.3473722 -0.012919086 -0.64347345 0.26805013 0.34590086 0.38455102 0.0642067
-0.83389723 -0.04292251 -0.20746139 0.26780245 0.79183453 0.17043673 0.18052098 0.6768735

fc3.bias f4 [64]
00000000: d059 f63d 6b96 803e efa1 9cbe 06a7 b0bd
00000010: 825d c0bd d7d1 a5bd 2199 cdbc d0ca 3abd
00000020: 828c 813e a49e 9c3e a1dd e7bd f31b 7e3c
00000030: 037b 3f3e cfdd 9a3e d557 0f3f 2cd3 adbd
00000040: 7fa3 6cbd 1b26 b8bc aad0 b5bd 0052 0d3e
00000050: 6e47 04be 73f9 68bd 4ad8 7d3f 7a95 b43e
00000060: 90b6 833e b6c0 683e 353d 4cbe a1cf 113e
00000070: 123e 8abd b686 813e 2c13 2c3f c729 913b
00000080: 4aa1 ea3d 8a75 743d 5d83 93bd 0a66 163d
00000090: f7d4 ff3e a281 153e de8a 863c 1732 81bd
000000a0: 839d c93c 5c20 823e b07a debd 9230 843b
000000b0: 9048 223d d689 623d 3fa3 ed3e 7f41 cebd
000000c0: e341 a9b9 8ab0 26be 613b 3abd 363d b03e
000000d0: 6fbb 323e b2bc 0dbe e80a 37bc f169 813e
000000e0: 976f e03c aa94 8c3e 98f7 fc3d 314d 083e
000000f0: 81fa a53e 12d9 88bd 0a68 713e 6700 8fbd
0.12028849 0.2511476 -0.30592296 -0.08625607 -0.09392835 -0.080966644 -0.025097432 -0.045603573
0.2530251 0.30589783 -0.11321569 0.015509593 0.18699269 0.30247352 0.55993396 -0.084875435
-0.05777311 -0.022479108 -0.0887769 0.13800812 -0.12917873 -0.05687852 0.99158156 0.35270292
0.25725222 0.22729763 -0.19945224 0.1423936 -0.0675012 0.2529809 0.67216754 0.004430029
0.11456545 0.059682406 -0.0720279 0.036718406 0.49967167 0.14600232 0.016423639 -0.06308382
0.02461124 0.25415313 -0.108632445 0.0040341103 0.039619982 0.05530723 0.4641361 -0.10071086
-0.0003228328 -0.16278282 -0.045466784 0.344217 0.17454313 -0.13841513 -0.011172034 0.2527614
0.02739696 0.27457172 0.12351912 0.13310696 0.32417682 -0.06682028 0.23574844 -0.069824986

output.weight f4 [4, 64]
00000000: 2626 b53c afa2 9ebf 02a2 66be 6336 883d
00000010: 88a8 953c d75a d0be 7379 cebe d002 f83c
00000020: 45bc bdbe f747 44be 7e50 58be 0584 863d
00000030: 44f9 37bf 15bd 183f 9ce8 ab3f ac42 53bd
00000040: 6f37 613a d35a d0be ae9e 84be 2e4b 373d
00000050: a2a1 ee3e 2e41 4cbe 190f c33f 0b5d 5abf
00000060: ae91 adbe 2358 93bf bcbc 9bbe 900c dfbe
00000070: 888b 663d 64b1 69bf 77b4 043f d4a2 6fbe
00000080: 1951 05bf 18b6 b4be 2a29 413d a878 bc3e
00000090: d12f a53e 114f 08be cfef 16bf cc46 cbbe
000000a0: 41e6 4abf 4923 03be 7a65 843d b79f 00be
000000b0: 8cfd 8bbe 9b36 f8be be6a 173f d5cd c93c
000000c0: 98a1 e63c ae9b 9ebe 3316 b7be b9a7 debd
000000d0: cac0 44be 959f 9b3e 35c3 13bf e151 a2be
000000e0: 874f a3be b069 cabe 7a28 d13e 7edd 6cbe
000000f0: 95bb 72be 962b babe f727 8f3f d639 fc3d
00000100: 0fa2 b2be 6bfd 64bf 2e13 c83e c0d0 2bbd
00000110: d333 c2bd 325d bebe 454e bdbe 6258 8ebd
00000120: b4f2 de3e 9b52 0dbf 8d54 1b3f 3da3 bbbd
00000130: 823d 2fbf db78 5b3e f2ac bb3f 2f9c 793c
00000140: e6ae cb3c 5f7d c0be 3f32 01bf 47ab 313f
00000150: e0df 553f fe38 d0be 3c86 bf3f c97a 81be
00000160: 45f8 8bbf fda5 acbf 0e59 a9be 96bb 75be
00000170: 5237 d8bc ae8e 52bf 9656 eb3d b51d dbbe
00000180: 88ca babe beaf abbe ced2 873d efea d93e
00000190: 8734 fd3e 58a3 eabe d238 68be 35c2 aabe
000001a0: 4ea9 4abe 6047 89be 9068 c53d 3145 2fbe
000001b0: 15cc c8be 8d4f c0be 7626 183f 229b 8b3d
000001c0: c016 eb3d 8646 cfbe 30e5 dabe b684 05bf
000001d0: d29f 123d d4b4 8d3e 096f a0bd 5939 96be
000001e0: 3d55 e0be 1a32 40be 61ab 0c3f 23f0 a23e
000001f0: dfeb cabe 21fa d6be ac31 883f 70ff 973e
00000200: ddc0 e0be 3ef6 2fbf beb8 553e eca2 f0bc
00000210: 36e6 b5bd 0517 b9be 2c99 9cbe e88e 213d
00000220: 1ffc 34bd 455c bcbe 7b61 c13f 3906 c33b
00000230: d813 0bbf 1572 30bf a5b1 c33f ec7b 4abc
00000240: bbc6 aa3d 14ad c1be d612 95be 4b76 fabd
00000250: 1084 1c3e 3672 aebe 924b 463f 5100 e2bd
00000260: 855d 10bf ad78 7f3e 757d 88be 6023 e2be
00000270: 06d9 29bd 531d 5fbf 95bb a53f 9554 84be
00000280: 9785 6cbf 9c52 75be bb1f 7f3d 7948 013f
00000290: ebfd d83e f305 f7be 176d b0be f017 9ebe
000002a0: bb99 c0be cd9d 9fbe 9dac c13c 107d 2fbf
000002b0: 579d bfbe ea7e 8bbe e351 9e3e 0292 883d
000002c0: c863 3fbd ce99 acbe 69dd 97be 8bf0 c6be
000002d0: 277d 263f 7147 a9be cf1d 06bf f594 b2be
000002e0: 5128 93be c5a6 a5be 3978 f03d 3da6 31bd
000002f0: 467c 923e bbd5 aabe 8dbf 9b3f be45 06bf
00000300: 40ee b4be 361b 04bf be4f 4bbf a51b e53c
00000310: fc0a 093e 5816 e1be cc85 eebe fe0b 3d3c
00000320: ac38 8bbe 9b08 d2bd 7d3a ab3f e4ca c5bd
00000330: ffe3 a1bf 255f 293f 2d57 ba3f b4e7 a33d
00000340: a6d4 a1bc a9a6 9cbe 7784 bbbe 69f3 d53e
00000350: 60e3 aa3f fecd c0be 1974 983f 58a5 61bf
00000360: dcb7 d13e 0760 f7be 839a e3be c5e1 25bf
00000370: a9f0 893d bca8 0bbf 1b02 893f 2414 0abf
00000380: f3cf adbe 9f0a 09bf 590e 99bd ea47 b4bd
00000390: f255 12be 6396 32be 8ecb 0cbf 8ea1 e6be
000003a0: 8cb0 3e3e 646c c5be 684e 933d b179 72bf
000003b0: 21e1 d5be c21d f5be c1d8 6abb 3282 da3d
000003c0: d3a1 da3d 4217 aebe 743a d2be 577f 8bbe
000003d0: 961c efbd 7cfa 903d 48dc 24be 172c 95be
000003e0: fa5f ecbe 5234 d9be 8205 23be f6a5 f3be
000003f0: 55a0 06bf 3fbc edbe 16b2 bf3f 9ccc 353f
0.022112917 -1.2393397 -0.22522739 0.066509984 0.018268839 -0.40694305 -0.40327033 0.030274779
-0.370577 -0.19168077 -0.21124455 0.065681495 -0.71864724 0.59663516 1.3430362 -0.051577255
0.0008591329 -0.40694293 -0.25902313 0.04474943 0.4660769 -0.19946739 1.5238982 -0.8529822
-0.33900207 -1.1511272 -0.3041743 -0.43564272 0.05628541 -0.912863 0.5183787 -0.23401958
-0.5207687 -0.35295177 0.047158398 0.36810803 0.32263044 -0.13311411 -0.5895967 -0.3970245
-0.7925759 -0.12806429 0.064646676 -0.12560926 -0.27341878 -0.4847916 0.5914725 0.024634281
0.028153226 -0.3097815 -0.35759124 -0.10871834 -0.19214168 0.3039519 -0.5771974 -0.31703094
-0.31896612 -0.39533758 0.40851194 -0.23131368 -0.2370437 -0.36361378 1.1184071 0.12315719
-0.34889266 -0.89449185 0.39077133 -0.041947126 -0.09482541 -0.37180477 -0.36973777 -0.069504514
0.43544543 -0.5520417 0.6067589 -0.091619946 -0.6845323 0.21432821 1.4662154 0.015234991
0.024863672 -0.3759565 -0.50467294 0.69401973 0.8354473 -0.40668482 1.496284 -0.2528899
-1.0935141 -1.3488156 -0.33075756 -0.2399734 -0.026393566 -0.8224896 0.11491124 -0.42796102
-0.36482644 -0.33532518 0.06632005 0.42562053 0.49454138 -0.45827746 -0.22677925 -0.33351293
-0.19791147 -0.26812267 0.09639084 -0.17116238 -0.39218202 -0.37560692 0.59433687 0.068166986
0.114789486 -0.40483493 -0.4275298 -0.52155626 0.035796948 0.27677023 -0.07833678 -0.29340628
-0.43815032 -0.18769112 0.54949003 0.31823835 -0.3963308 -0.41987708 1.0640159 0.2968707
-0.43897143 -0.6873511 0.20871255 -0.029374562 -0.088818 -0.36150375 -0.3058561 0.039442927
-0.044185754 -0.36789146 1.5107874 0.0059516695 -0.54327154 -0.68924075 1.5288588 -0.012358647
0.08338686 -0.3782736 -0.29115933 -0.12229594 0.15284753 -0.3407151 0.7745906 -0.110352166
-0.563927 0.24948378 -0.26658216 -0.44167614 -0.041466735 -0.8715412 1.294787 -0.2584578
-0.9239134 -0.23957294 0.06228612 0.5050121 0.42381224 -0.48246726 -0.3445823 -0.30877638
-0.37617287 -0.3117508 0.023641879 -0.68550205 -0.37424728 -0.27245265 0.3092185 0.06668474
-0.04672602 -0.33711094 -0.2966111 -0.38855395 0.6503472 -0.33062318 -0.52389234 -0.3487927
-0.28741696 -0.32353798 0.11741681 -0.043371428 0.28610438 -0.33366188 1.2167832 -0.5245017
-0.3533802 -0.5160402 -0.7941855 0.027967284 0.13383096 -0.4396236 -0.46586454 0.011538504
-0.27191675 -0.102555476 1.3377224 -0.09657839 -1.2647704 0.66160804 1.4557854 0.08003178
-0.019754719 -0.30595902 -0.366245 0.4178727 1.3350639 -0.3765716 1.191043 -0.8814292
0.40960586 -0.4831545 -0.4445382 -0.6479762 0.067353554 -0.54554343 1.0703768 -0.5393698
-0.33947715 -0.5353183 -0.0747344 -0.08802779 -0.14290598 -0.1744018 -0.549981 -0.4504513
0.18622035 -0.38559258 0.07192689 -0.94716936 -0.41773322 -0.47874266 -0.0035834762 0.10669364
0.10675397 -0.3400212 -0.4106022 -0.2724559 -0.11675374 0.07079026 -0.16099656 -0.291352
-0.46166974 -0.4242273 -0.1592007 -0.47587556 -0.525884 -0.46432683 1.4976223 0.71015334

output.bias f4 [4]
00000000: ef3d ae3e 4346 563e 9f82 aa3e 8d83 b93d
0.34031627 0.2092524 0.3330278 0.090582944
